simulations/pythoncode/vae_estimate/results/VAEmnist-q-1-batch_size-64-g.pt (torch, 5193 bytes, 4 tensors)

linear1.weight f4 [128, 1]
00000000: 28e7 a501 2659 40bf 7e7a f23e 0a70 1abe
00000010: b965 2b3e c4a1 1500 407c 0181 d6ff 853f
00000020: bffd 973f ec56 1001 0e8e 73bf c485 2fbf
00000030: 3856 7400 e84a 5a00 25f2 37bf ecf7 dbbd
00000040: ffc6 593e a14b f3be 14b1 6698 f4fe d800
00000050: ac48 1c21 1730 12bf b010 fbbe 3eb6 3b3f
00000060: a77e 813f 3a4e 7e3f 4431 8f3f 6f71 503e
00000070: f719 db00 21d6 9b3f bc22 e63e f69b 903e
00000080: 28e8 cd00 684a 72bf 3ab6 853e 97da b0be
00000090: ce89 6fbf 8da8 933f ea4c 2a01 d3a4 e4be
000000a0: 0adc b8be c25a 343f 66a1 873f 1035 993d
000000b0: 14c3 97bf 0277 0201 8c47 71bf 7a8a 92bf
000000c0: 7d12 47bf 8a23 82bf d054 7dbf 1130 043f
000000d0: 7a2e 15bd 70a1 6680 3788 e43d 7886 b681
000000e0: 9a91 9301 3014 8f3f 73d0 99bf a09a 6abf
000000f0: c6ac 7480 90ff da3e 500c 0400 3077 03bf
00000100: c488 ed3e 8d8b 493f c835 5a81 3e40 ca3d
00000110: 74da 813f c6bc 3ab1 c2c8 573f a3a9 96be
00000120: a6d6 0f01 ca27 7d3f 48a8 04bb f0dc 6781
00000130: 2012 8980 9429 893f 09e2 683f ac8e 0e3f
00000140: bc1d 513e 186c 8d3f d54e 2c81 64b3 5a01
00000150: e477 52bf c214 42bf 23b4 99bf 943d 6b00
00000160: c173 11bf f40a b500 3a29 1d80 a3d1 e33d
00000170: 27c7 8680 3844 5f3f 0ca8 313f 676a 3bac
00000180: b4f2 853f f856 5a81 26fe 7e00 740e 983f
00000190: afd5 9f3f ae35 7280 5e57 2281 2f42 7dbf
000001a0: 0369 76bf 7064 913f 81cf 92be 2b82 3581
000001b0: f799 893f 09be 313e 2730 8f3e 700c 9bbf
000001c0: bd3a 0abf cc1b 4200 9166 32bf 38db 2f00
000001d0: 90bb 8080 8b05 2981 933f 69bf 5a6d 503f
000001e0: ce35 95bf df92 883f ea77 7180 3952 10be
000001f0: 9fc7 253f 34ae 4e80 5255 1f00 21c4 65bf
6.094312e-38 -0.7513603 0.4735908 -0.15081802 0.16738023 1.986576e-39 -2.3782703e-38 1.04687
1.1874312 2.6510986e-38 -0.95138633 -0.68563485 1.0683847e-38 8.292066e-39 -0.7185386 -0.10740647
0.21267317 -0.47518638 -2.9816205e-24 1.9927927e-38 5.2951036e-19 -0.5710463 -0.4903617 0.73324955
1.0116776 0.99338114 1.118691 0.20355771 2.0121288e-38 1.2174722 0.44948375 0.2824399
1.8909559e-38 -0.94644785 0.2611559 -0.3454177 -0.9356965 1.1535813 3.1279252e-38 -0.44657
-0.36105376 0.70450985 1.059613 0.07480824 -1.1856408 2.3962613e-38 -0.94249797 -1.144851
-0.77762586 -1.0167096 -0.9895754 0.51635844 -0.036421277 -9.425133e-39 0.111587934 -6.7049194e-38
5.42082e-38 1.1178036 -1.2016739 -0.9164219 -1.0714897e-38 0.42773104 3.71759e-40 -0.5135374
0.46393406 0.7872856 -4.0078862e-38 0.098755345 1.0144792 -2.7173868e-09 0.8429071 -0.29426298
2.6418955e-38 0.9888884 -0.0020241905 -4.2586514e-38 -1.2587965e-38 1.0715814 0.909699 0.5568645
0.20421499 1.1048613 -3.164797e-38 4.0168983e-38 -0.8221419 -0.75812924 -1.2008098 9.848488e-39
-0.5681725 1.6626154e-38 -2.678019e-39 0.111239694 -1.2377399e-38 0.8721347 0.69397044 -2.6633363e-12
1.0464692 -4.0102673e-38 1.1662444e-38 1.1879411 1.2487086 -1.0488503e-38 -2.9817384e-38 -0.98929113
-0.96253985 1.1358776 -0.28673938 -3.333784e-38 1.0750111 0.17357649 0.27966425 -1.2113171
-0.5399588 6.071114e-39 -0.69687754 4.394909e-39 -1.1822228e-38 -3.1044375e-38 -0.9111263 0.8141686
-1.1657045 1.0669822 -1.0420428e-38 -0.14093865 0.6475772 -7.225661e-39 2.877508e-39 -0.89752394

linear1.bias f4 [128]
00000000: fe83 02b8 763a c83e e408 413e 5324 623e
00000010: 01c4 303e 0e81 0780 9048 6e81 dcc5 a33e
00000020: 65e4 913e e3c0 8681 9508 923e ab0c 2c3f
00000030: 9326 3a81 c1f5 b780 5084 143e ff98 ed3c
00000040: 279e 993e f04b 143f 79bb 8ab8 9639 4881
00000050: 5c1c 0aba f2b7 163f c4fc 073f add6 e53e
00000060: 7537 983e 423a 9b3e 2a81 753e 3bae 8c3d
00000070: 4c1e 9fa3 c1e1 803e fac3 023f 7f5e 833e
00000080: f107 a380 b394 8e3e 0200 a33e 013b 7c3e
00000090: 2f9d 973e e2fe 8e3e 5e88 8a81 4c3a df3d
000000a0: 7e1a c33e 5776 c33e a920 683e f462 503d
000000b0: 639c 5f3e 9114 9181 9c2b 2d3e e2ce 783e
000000c0: 3f66 ba3e 5429 c33e cae0 b63e b5dd 8f3e
000000d0: 8336 b23c bb8d 34b6 d1f4 d33d 13f3 0890
000000e0: d21f 1e81 f99b 6e3e 4c38 8c3e f68f 273e
000000f0: 8b17 36ae 7ee1 b93e f813 1981 9d8e 213e
00000100: d08b 5f3e dc4b b53e d846 b481 1a4b d93d
00000110: 64b0 8f3e 531b bfb2 ec11 603e 03b6 823e
00000120: bccc 0181 ce5f 603e eef5 86ba a758 3181
00000130: 644a cf80 3b0f 963e 13e9 4b3e 4b6c db3e
00000140: d602 8a3d 1c69 893e c945 9980 f052 5081
00000150: 51ac 1f3e 6fec 0e3f db47 ad3e f40e 5a80
00000160: 5f2d 9e3e d6f7 5581 6bd8 3580 adb8 813d
00000170: 9416 d580 7ec4 c63e 0982 1c3e 5c47 43bb
00000180: 1f6c 863e 5664 0481 f38a b780 289e 813e
00000190: 50e3 903e 60c9 3b81 6175 a181 1776 693e
000001a0: 2d02 393e 0497 af3e 4455 193e e392 da80
000001b0: 1f0c 763e 2d79 763e cc06 943d 1487 903e
000001c0: f1cc 1e3f 6b4f 7e80 3356 a73e 3c6c ff80
000001d0: d981 5f80 fb7e a180 5cb3 2f3e 46d5 ae3e
000001e0: 36de 843e 933d 873e 30f8 6780 83a0 9b3e
000001f0: 98c3 b03e adca ea80 81e5 7180 0f21 9f3e
-3.1117343e-05 0.39107102 0.18851048 0.22084169 0.1726227 -6.89145e-40 -4.3765757e-38 0.31986892
0.28494564 -4.9500605e-38 0.28522173 0.6720683 -3.419048e-38 -1.6894056e-38 0.14503598 0.029003618
0.30003473 0.5792837 -6.615272e-05 -3.6775514e-38 -0.0005268508 0.5887443 0.53120065 0.44890347
0.2972981 0.30317885 0.23975053 0.06869169 -1.7251646e-17 0.25172237 0.51080287 0.25658032
-1.4972035e-38 0.27847824 0.31835943 0.24631883 0.2961211 0.27928835 -5.088887e-38 0.10899791
0.3810615 0.38176224 0.22668709 0.05087562 0.21837 -5.32941e-38 0.16911167 0.2429767
0.36406133 0.38117468 0.35718375 0.28098837 0.021754509 -2.6904588e-06 0.103494294 -2.7008528e-29
-2.9042847e-38 0.23301686 0.273867 0.1636351 -4.140292e-11 0.3630485 -2.811599e-38 0.15777059
0.21830678 0.3540944 -6.6223213e-38 0.106100276 0.28064263 -2.2247752e-08 0.21881837 0.2552949
-2.3840448e-38 0.21911547 -0.0010296681 -3.257337e-38 -1.9036634e-38 0.29308495 0.1991313 0.42856058
0.06738822 0.26838005 -1.4075865e-38 -3.826307e-38 0.15593077 0.5582952 0.33843884 -8.270559e-39
0.3089399 -3.9299735e-38 -4.944917e-39 0.06334052 -1.956906e-38 0.38821787 0.1528398 -0.0029797172
0.26254365 -2.4316558e-38 -1.6855741e-38 0.25315976 0.28298426 -3.4490955e-38 -5.931049e-38 0.22798954
0.18067236 0.34294903 0.14973933 -2.0072831e-38 0.24028061 0.24069662 0.07227859 0.28228056
0.62031466 -1.1599762e-38 0.32682952 -2.3456879e-38 -8.770953e-39 -1.4831067e-38 0.17158264 0.3414709
0.25950783 0.26414165 -9.548089e-39 0.30395898 0.34524226 -2.1562212e-38 -1.0459742e-38 0.3107991

linear2_mu.weight f4 [3, 128]
00000000: 464e 5c2d c9a6 aebe 1cec 663e ef1c 76bd
00000010: 0b86 8b3d b373 a181 5833 7700 825a eb3e
00000020: ae6e 123f aa26 ba81 b3be bfbe a5dc 6abe
00000030: 900a a500 22c5 b780 bf0c aebe e36d 82bd
00000040: a037 0f3e 99dd 67be 003d 8cb6 608e 2601
00000050: bf32 7638 03a4 72be 1c55 1fbe 5126 b33e
00000060: 408c ee3e 4af1 db3e 19ed 023f e980 6a3d
00000070: 4c24 1c81 f3ec 103f b4a8 533e aa47 0e3e
00000080: fdff 9101 9437 f9be cb13 0b3e 051a 14be
00000090: 0d2a c8be 1dbe 003f 4c9f d780 97a4 5bbe
000000a0: 2a01 21be 92c6 953e 8acc 023f 4fcd ed3c
000000b0: 4daf 1fbf f7cc 4901 283a 0abf b340 0ebf
000000c0: 44b8 9ebe 5545 e4be fdde c3be 7474 713e
000000d0: 4f4b af3c e0f0 d5ac 7afc 523d 3616 b800
000000e0: 2ae4 4a81 00b5 043f f4da 09bf 7329 f4be
000000f0: af30 7981 600c 513e c363 5b00 26a3 6cbe
00000100: 0fc0 5c3e 1bf5 983e 1088 7401 4eb7 ac3c
00000110: a614 f63e 3a6b d7b1 c4f9 c73e ebd8 22be
00000120: 841f cb00 5e9f e93e 4ecc ea3a 1906 7980
00000130: 49b6 1e80 0b04 ed3e 0f79 d73e 76cd 4e3e
00000140: 7a65 ef3d a213 fd3e 32bd 8901 f77b 7d80
00000150: 4a86 e0be 7f7b aabe 5ac2 01bf 6c24 2a01
00000160: 4c89 5ebe 0624 c480 d24a 2681 9b2b ac3d
00000170: d66a 4381 8b6a b73e ea07 aa3e ee82 2ab9
00000180: 0606 f03e ba7e 6500 f023 fb80 1a73 143f
00000190: 8a27 1b3f 0bb0 d380 809d 3f00 588e ecbe
000001a0: 561c 0abf bd79 093f 7a01 03be 2046 0300
000001b0: 8559 0f3f f575 093e 4e49 153e 98c4 0ebf
000001c0: bdfc 92be 69f0 9801 15bf a9be f5d3 9581
000001d0: 5824 b081 82ce 8b81 c303 e7be 47d8 c63e
000001e0: 95ac 17bf 823a fd3e 11be 7c80 c6bb 44bc
000001f0: 14d2 993e 82c9 9401 5c5e ae01 b5af d5be
00000200: fc9a 28ae 76df 9a3e 2d14 26be 8e8b 253e
00000210: 7940 eeb8 9b7e b181 3e62 8401 4582 efbe
00000220: adae 07bf c8f7 9801 f4fd f13e aaec b83e
00000230: b54b 9e01 ff43 9c01 e4dc c53e e5ea 513d
00000240: 309a f239 8e56 803e c59f 85b4 bcdb 9a01
00000250: fd5c 8d37 2f97 833e fe75 9b3e b0d3 9abe
00000260: bf8e e3be d13f dbbe 2c6f 12bf a07d b8bd
00000270: 9f3a 5f00 ac6e 2dbf 10e3 10be ac87 80bd
00000280: d4bf 0581 9da3 c93e 53f9 74bd db73 663e
00000290: f5f3 ce3e 0e36 08bf b09f e000 ae29 7d3e
000002a0: 0df7 333e 044e 5ebe 5b81 f8be 66d3 19bd
000002b0: 0857 293f 34cb 6401 c6df e63e 92e9 043f
000002c0: 6ff0 d93e 3c93 c83e 76bc dd3e 81ca 5abe
000002d0: 6289 043d 880e 502d f6ff f63b 6fe5 7180
000002e0: 240a 2b81 57b8 1abf 7af8 153f 316d eb3e
000002f0: da26 9200 1fec 11be f4b7 1e01 433e 883e
00000300: ee52 01be e13d a8be 9012 5d01 8cf6 e7bc
00000310: f5dd e1be eab8 dfb2 4d8d c0be 2453 093e
00000320: 8466 6381 6a9d f7be 9065 c23c 3d11 6980
00000330: 536e 9b81 4337 fbbe c7b4 e5be 7545 75be
00000340: 3a81 1fbd a882 fabe b9fb 0181 821b b401
00000350: dc5f e03e 6eb8 b83e c757 083f 0e42 2681
00000360: c3e1 aa3e 76d5 6501 7535 3580 6d58 823c
00000370: 6157 0080 7ad1 aabe 2891 97be 29dc 083a
00000380: 0d96 eabe 360e 9e00 96e4 6f80 84b0 0dbf
00000390: 73a1 0ebf 4625 9c81 d809 3600 adc3 d33e
000003a0: c05a e33e a91c e7be 95b5 483e d086 6900
000003b0: 59e8 edbe c634 e5bc 4a53 b7bd 92f8 0a3f
000003c0: e579 843e 35c3 0780 a43c a83e c62e 1a80
000003d0: c407 0c00 846a 3381 36e1 db3e dd2c 97be
000003e0: 7518 0f3f 7da5 eebe 855a 2181 92c5 373e
000003f0: 77cb 6fbe 78c2 9300 4c61 1381 ac12 c93e
1.2522932e-11 -0.34111622 0.22551006 -0.060086187 0.06812676 -5.930808e-38 1.0946843e-38 0.4596749
0.57200134 -6.838109e-38 -0.3745018 -0.22935732 1.5156646e-38 -1.6876614e-38 -0.339941 -0.063686155
0.13986063 -0.22643127 -4.1794265e-06 3.0591534e-38 5.869823e-05 -0.23695378 -0.1555981 0.3499017
0.46591377 0.42957526 0.5114303 0.057251845 -2.8678717e-38 0.56611556 0.20669824 0.13894525
5.3631913e-38 -0.48675215 0.13581769 -0.1446305 -0.39094582 0.5029009 -1.9801777e-38 -0.21449505
-0.157231 0.2925306 0.5109335 0.029028563 -0.6237686 3.7064925e-38 -0.5399499 -0.55567473
-0.3099996 -0.44584146 -0.38256064 0.2357958 0.021398215 -6.0805666e-12 0.05151031 1.6905699e-38
-3.726524e-38 0.51838684 -0.5384972 -0.47687873 -4.5769006e-38 0.20414877 8.392818e-39 -0.23109111
0.2155764 0.298745 4.4913342e-38 0.0210835 0.48062629 -6.269514e-09 0.39057744 -0.1590306
1.8653911e-38 0.456294 0.0017913671 -1.1114282e-38 -2.820456e-39 0.46292147 0.42084548 0.20195565
0.11689277 0.4942904 5.0597334e-38 -1.1523907e-38 -0.43852454 -0.33297345 -0.5068718 3.12502e-38
-0.21732062 -1.801268e-38 -3.0543066e-38 0.084067546 -3.5892495e-38 0.35823473 0.33209163 -0.00016261238
0.46879596 9.320846e-39 -2.3063601e-38 0.5798813 0.60607207 -1.9440442e-38 5.842137e-39 -0.4620235
-0.5394949 0.5370138 -0.12793532 3.00663e-40 0.5599597 0.13423903 0.14578745 -0.5576873
-0.2870845 5.6180953e-38 -0.33153597 -5.50381e-38 -6.470434e-38 -5.135686e-38 -0.45120057 0.38836882
-0.59247714 0.494587 -1.1455785e-38 -0.012007659 0.3004309 5.4655763e-38 6.4052904e-38 -0.41735616
-3.833643e-11 0.30248612 -0.16218634 0.16166517 -0.00011360733 -6.52012e-38 4.863011e-38 -0.46779075
-0.5300091 5.619153e-38 0.47264063 0.3611806 5.814867e-38 5.740292e-38 0.3864509 0.051249404
0.00046272716 0.25066036 -2.4889428e-07 5.688597e-38 1.685181e-05 0.2570128 0.30363458 -0.3023963
-0.44444844 -0.42822126 -0.57200885 -0.09008336 8.745401e-39 -0.67746997 -0.14149117 -0.06275877
-2.4565872e-38 0.3938264 -0.059808087 0.22505133 0.404205 -0.5320748 2.0628436e-38 0.24722931
0.17574711 -0.21709448 -0.4853619 -0.03755512 0.66148424 4.2022777e-38 0.450926 0.519189
0.4256625 0.3917483 0.43307847 -0.21366312 0.03235758 1.1826658e-11 0.007537837 -1.0459716e-38
-3.1415015e-38 -0.6043753 0.5858227 0.45981744 1.342192e-38 -0.1425023 2.9151997e-38 0.26610002
-0.12629291 -0.3285971 4.0604607e-38 -0.028315805 -0.44114652 -2.6044706e-08 -0.37607804 0.13410622
-4.1766867e-38 -0.48362285 0.02373007 -9.648911e-39 -5.7096315e-38 -0.490656 -0.44864485 -0.23952277
-0.0389416 -0.48927808 -2.387416e-38 6.616103e-38 0.43823135 0.3607821 0.5325894 -3.0536777e-38
0.33375368 4.2213808e-38 -4.886458e-39 0.015911305 -3.1346e-41 -0.33362943 -0.29602933 0.00052207947
-0.45817605 1.4515106e-38 -1.0275741e-38 -0.55347466 -0.557151 -5.7358834e-38 4.962648e-39 0.41360226
0.44405174 -0.45139053 0.19600518 9.691089e-39 -0.4646633 -0.027979266 -0.08951433 0.5428554
0.25874248 -7.12876e-40 0.32858765 -2.404502e-39 1.104812e-39 -3.295353e-38 0.4294526 -0.29526415
0.55896693 -0.46610633 -2.9635974e-38 0.17946461 -0.2341746 1.356958e-38 -2.7069443e-38 0.39272058

linear2_mu.bias f4 [3]
00000000: b3cb 7bbc 7e47 e03d 270b 8bbc
-0.01536839 0.10951136 -0.016973091
