simulations/pythoncode/vae_estimate/results/VAEmnist2-q-2-batch_size-64.pt (torch, 15094 bytes, 14 tensors)

e.linear1.weight f4 [128, 3]
-0.17136478 0.04983736 -0.076718114 0.2067894 -0.5846802 0.29774627 0.27595013 0.019607129
-0.18580465 -0.039402362 0.4527237 0.43727633 0.2646246 -0.042146716 -0.11049399 -0.06892536
-0.011405603 0.021805706 1.6148472e-19 6.538e-16 2.4246128e-14 -0.078569874 0.35623413 0.3274281
0.18564339 -0.29459321 -0.2694711 -0.04728404 0.006139015 0.012066319 0.022750344 -0.005315652
0.03539421 0.5916141 -0.06458044 -0.044504695 0.23168354 -0.3347177 0.38138944 7.036305e-18
-1.2554594e-38 -1.0580941e-30 -0.031811878 -0.039392654 0.01460534 -0.007401474 0.00408964 -0.01593682
0.358056 0.0033790034 -0.08292012 -0.30805486 -0.44674218 0.46629265 0.0889648 -0.0033220768
-0.07767404 -1.5548652e-05 8.619334e-05 -2.7664111e-05 -3.8366055e-12 -1.7602332e-10 -3.2350938e-11 0.0104735
0.3116983 0.45495063 0.030188404 -0.09491222 0.004832526 0.0053753345 0.049486488 -0.021967053
0.049549334 -0.017254194 -0.0439052 1.0561985e-27 -9.038458e-28 -2.1888402e-06 0.25569564 -0.22230609
-0.21623039 0.56665105 -0.12790011 0.084004186 0.0097054755 -0.0011553568 0.01182932 3.0655706e-15
-1.0088521e-19 -4.3254696e-19 0.105791286 0.24795237 0.24765155 0.0031359384 0.0004348076 -0.0009647935
-0.018562706 0.61253977 0.54198146 -0.07045814 -0.026012572 0.0011194561 -8.928459e-39 -6.0121256e-36
9.356292e-39 -0.019956797 0.025013404 0.052940797 -0.05929378 -0.49230516 -0.5100623 0.014576876
-0.00017657256 0.008597031 -0.036807902 0.036544904 0.43637925 -0.0031105333 0.006537686 -0.015567751
0.026229898 0.022270106 -0.00055571366 0.0054102815 0.010831942 0.011186915 0.008961247 0.013830243
0.0071062995 0.08763386 -0.6020928 -0.59462655 -0.099467196 -0.1114704 0.43261155 -0.005458632
0.019395487 -0.0024236338 0.7729414 0.15467906 -0.09299889 0.019267742 -0.008489904 0.021714121
-0.5188717 0.05123654 0.2884299 0.009633343 -0.035462823 -3.047296e-06 0.07769007 0.7624034
-0.20929946 -0.6731548 0.03073298 -0.079598285 -0.0003501686 -0.66462934 -0.71369994 3.2983946e-06
-5.2020976e-08 -1.1265678e-05 -0.5327419 0.19046865 -0.24098346 0.031526044 -0.58604515 -0.0039936695
-0.0036162923 -0.0707387 -0.028414149 0.029722169 0.5073396 -0.030039411 -0.03884362 -0.013780627
-0.02597879 0.011967799 -0.0026072827 0.010495401 0.0026160788 -0.0008921486 0.00019693318 0.4001474
-0.17947568 0.08499688 -0.08325041 -0.020802349 0.07495246 0.25701 -0.20555183 0.24040933
-0.07357532 -0.06646778 -0.16504063 -0.0077141314 0.0010536453 -0.0034076213 -0.32500488 0.59885055
-0.4720524 1.5700174e-06 -1.190687e-05 0.000118215234 -0.36761883 0.5477141 0.5465399 0.015158085
-0.016652616 -0.0074997204 4.515624e-22 -3.1548794e-38 6.1795273e-24 -0.083765596 -0.25643373 0.2763458
-0.08235538 -0.5800329 -0.5811067 -0.29938853 0.5607389 0.49274543 -0.16129641 -0.022221796
0.04751146 -0.008917533 -0.005722743 0.0072798436 -0.000921209 -0.024112897 -0.0019083943 0.28977403
0.28510427 0.059969354 -0.4355057 0.13872819 0.18352197 -2.5441263e-08 7.5974714e-07 -1.3878747e-07
-0.0061584027 -0.007579692 0.0075590126 -0.47897598 0.005533025 0.002364449 -0.009935885 0.008375949
-0.03974117 0.3421841 0.5484659 0.5853659 -0.092328064 0.08331767 0.11627996 0.07615691
00000000: 407a 2fbe 4222 4c3d 631e 9dbd 9ac0 533e
00000010: 9aad 15bf 3372 983e 5649 8d3e 219f a03c
00000020: 9343 3ebe 5f64 21bd 67cb e73e afe2 df3e
00000030: e07c 873e 09a2 2cbd ac4a e2bd bd28 8dbd
00000040: 91de 3abc e1a1 b23c c3a5 3e20 ed71 3c26
00000050: c463 da28 3ee9 a0bd 5264 b63e a8a4 a73e
00000060: 4d19 3e3e ecd4 96be 1ef8 89be e9ac 41bd
00000070: ca29 c93b cfb1 453c ee5e ba3c ec2e aebb
00000080: 85f9 103d 0674 173f c042 84bd 8e4a 36bd
00000090: 733e 6d3e 1e60 abbe 7a45 c33e 03cc 0123
000000a0: 1ab5 8880 82af ab8d 2c4d 02bd 315a 21bd
000000b0: 3c4b 6f3c 1088 f2bb 6302 863b ef8d 82bc
000000c0: 1e53 b73e 4572 5d3b 06d2 a9bd 5eb9 9dbe
000000d0: 64bb e4be e9bd ee3e 2d33 b63d 33b7 59bb
000000e0: 9113 9fbd 7a6e 82b7 b2c2 b438 3a10 e8b7
000000f0: 12fd 86ac 298a 41af eb47 0eae 0b99 2b3c
00000100: eb96 9f3e 4aef e83e ac4d f73c 5761 c2bd
00000110: 2b5a 9e3b 9323 b03b 58b2 4a3d 40f4 b3bc
00000120: 3ef4 4a3d ab58 8dbc f0d5 33bd 805c a712
00000130: 5738 8f92 fde3 12b6 8aea 823e 35a4 63be
00000140: 806b 5dbe 0b10 113f 3ff8 02be 630a ac3d
00000150: b703 1f3c 576f 97ba c4cf 413c cce5 5c27
00000160: 5e35 ee9f a654 ffa0 1aa9 d83d 3ae7 7d3e
00000170: 5e98 7d3e 5184 4d3b e3f6 e339 32ea 7cba
00000180: d110 98bc 68cf 1c3f 4cbf 0a3f 5b4c 90bd
00000190: 5118 d5bc b7ba 923a e938 6180 40ba ff84
000001a0: 89e1 6500 707c a3bc e9e8 cc3c 73d8 583d
000001b0: 09de 72bd 6c0f fcbe 7193 02bf d9d3 6e3c
000001c0: 5626 39b9 90da 0c3c e2c3 16bd 1cb0 153d
000001d0: 1a6d df3e 17da 4bbb 163a d63b e10f 7fbc
000001e0: 15e0 d63c cc6f b63c 50ad 11ba bb48 b13b
000001f0: 7578 313c 5349 373c 32d2 123c 3e98 623c
00000200: f6db e83b 6279 b33d c122 1abf 7239 18bf
00000210: 75b5 cbbd 984a e4bd 437f dd3e 53de b2bb
00000220: 49e3 9e3c d4d5 1ebb 7ddf 453f 3064 1e3e
00000230: 3476 bebd 62d7 9d3c 3d19 0bbc d0e1 b13c
00000240: c7d4 04bf 68dd 513d 15ad 933e 2bd5 1d3c
00000250: 7741 11bd 2680 4cb6 f91b 9f3d df2c 433f
00000260: 9952 56be df53 2cbf bbc3 fb3c 6d04 a3bd
00000270: d596 b7b9 2625 2abf 0ab5 36bf fd59 5d36
00000280: ab6d 5fb3 b801 3db7 c661 08bf 370a 433e
00000290: 5ec4 76be 7421 013d 0e07 16bf 54dd 82bb
000002a0: 51ff 6cbb 74df 90bd cac4 e8bc e87b f33c
000002b0: 02e1 013f 3615 f6bc 7d1a 1fbd 24c8 61bc
000002c0: 79d1 d4bc 9614 443c f2de 2abb e7f4 2b3c
000002d0: 8572 2b3b 14df 69ba d97f 4e39 1fe0 cc3e
000002e0: 79c8 37be d812 ae3d 317f aabd b069 aabc
000002f0: ad80 993d d196 833e 2e7c 52be dd2d 763e
00000300: a8ae 96bd 4220 88bd 6900 29be d3c6 fcbb
00000310: 781a 8a3a 6652 5fbb 0a67 a6be 454e 193f
00000320: dab0 f1be 63b9 d235 9ec3 47b7 52ea f738
00000330: 8938 bcbe fe36 0c3f 0aea 0b3f 9e59 783c
00000340: 116b 88bc 37c0 f5bb f379 081c 9ac4 2b81
00000350: 130f ef18 4c8d abbd 484b 83be 327d 8d3e
00000360: f0a9 a8bd 097d 14bf 69c3 14bf 7449 99be
00000370: 968c 0f3f 2149 fc3e e32a 25be 7c0a b6bc
00000380: 609b 423d d81a 12bc d985 bbbb c18b ee3b
00000390: 4a7d 71ba 6988 c5bc 1623 faba 435d 943e
000003a0: 30f9 913e 6da2 753d 9afa debe c30e 0e3e
000003b0: 2fed 3b3e ee89 dab2 6df1 4b35 9c05 15b4
000003c0: 6dcc c9bb 115f f8bb 98b1 f73b 573c f5be
000003d0: 614e b53b dff4 1a3b 1fca 22bc 473b 093c
000003e0: a3c7 22bd c132 af3e 4368 0c3f 8ada 153f
000003f0: 7f16 bdbd 74a2 aa3d 3024 ee3d 27f8 9b3d

e.linear1.bias f4 [128]
-0.19658285 -0.3854008 0.002251481 -0.10383771 -0.20657757 -0.08043405 -2.605668e-13 -0.084410526
0.077920005 -0.04988477 -0.044091158 -0.10629727 -0.3829677 -2.8914257e-15 -0.05348998 -0.02331956
0.21956342 -0.52232295 -0.12245942 -0.00029894747 -1.3995627e-07 0.25386828 -0.038168497 -0.07121432
-0.07439716 -6.5179986e-05 0.065533265 -0.37876073 -0.025228065 -8.772618e-12 -0.049040265 -0.012537379
0.3313563 -0.08498281 -8.1903414e-33 -0.06836922 0.28282243 -0.05215898 -0.37302086 -0.051406033
-0.036346063 -0.033924557 -0.030671109 0.026380995 -0.27228662 -0.022267861 -0.38601393 -0.050350323
-0.4750195 -0.040905647 -0.5473812 -0.36642918 -0.6170897 -0.00080746185 0.05194429 -0.42318657
-0.024898544 -0.41392237 -0.053652614 0.07800651 -0.004323939 -0.04216972 -0.11497545 -0.065209
-0.20031787 -0.008850957 -0.6120905 -0.0010651256 0.057785746 -0.02878522 -7.77071e-22 -0.17939825
-0.13253649 -0.45949963 0.06269585 -0.02319534 -0.027516851 0.20461753 0.11602578 -1.3048135e-05
-0.031534508 -0.0984101 -0.046789225 -0.6002109 0.0705809 -0.445573 -3.0419205e-08 -0.008054919
-0.05131059 -0.27076414 0.13373925 0.07595881 -0.037121426 -0.0004778698 -0.026707938 -0.5975041
-0.034320645 -1.2511472e-20 -0.3226954 0.024134107 -0.096495025 -0.08626647 -1.5609805e-06 -0.02155964
0.192805 0.025840748 -0.16308253 -0.41034114 -0.42215744 -0.03930586 -0.48594496 -0.36409125
-3.8428408e-10 -0.57285076 -0.0015141717 0.06356908 -0.39748338 -0.052048046 -0.092838734 -0.058093254
0.3266593 -0.45275655 -0.05635454 -0.13356835 -0.04310609 -0.042506743 -0.07869706 -1.0661594e-09
00000000: 044d 49be 4153 c5be 958d 133b dea8 d4bd
00000010: 1289 53be 9bba a4bd a2af 92aa 6ddf acbd
00000020: 8694 9f3d f953 4cbd ee98 34bd 62b2 d9bd
00000030: 5814 c4be 6459 50a7 4f18 5bbd a908 bfbc
00000040: 3cd5 603e f5b6 05bf 01cc fabd 0dbc 9cb9
00000050: e346 16b4 06fb 813e 9256 1cbd d0d8 91bd
00000060: 8a5d 98bd 3db1 88b8 4e36 863d edec c1be
00000070: 16ab cebc 5c54 1aad 72de 48bd 9469 4dbc
00000080: 88a7 a93e 780b aebd 531b 2a8a 2905 8cbd
00000090: 1ace 903e a8a4 55bd 97fc bebe 228f 52bd
000000a0: 9cdf 14bd 7af4 0abd fa41 fbbc f51c d83c
000000b0: 2769 8bbe 176b b6bc 9ea3 c5be 243c 4ebd
000000c0: c235 f3be ae8c 27bd 2d21 0cbf 9b9c bbbe
000000d0: 97f9 1dbf d9ab 53ba 89c3 543d e9ab d8be
000000e0: 08f8 cbbc a2ed d3be d8c2 5bbd e1c1 9f3d
000000f0: d4af 8dbb 28ba 2cbd 4078 ebbd 4c8c 85bd
00000100: 2120 4dbe 9b03 11bc f7b1 1cbf af9b 8bba
00000110: bfb0 6c3d fbce ebbc f5da 6a9c 2db4 37be
00000120: a5b7 07be 8943 ebbe af66 803d 2704 bebc
00000130: 056b e1bc 4287 513e ed9e ed3d 50e9 5ab7
00000140: 542a 01bd 3c8b c9bd 0fa6 3fbd 6ca7 19bf
00000150: b88c 903d 2522 e4be 45a6 02b3 c7f8 03bc
00000160: 0e2b 52bd 99a1 8abe f1f2 083e 4b90 9b3d
00000170: a30c 18bd 998a fab9 9bca dabc 07f6 18bf
00000180: ce93 0cbd c455 6c9e 5538 a5be e4b4 c53c
00000190: 2f9f c5bd 7aac b0bd e282 d1b5 d89d b0bc
000001a0: ad6e 453e faaf d33c 1bff 26be 3c18 d2be
000001b0: 0525 d8be 2eff 20bd c7cd f8be 2b6a babe
000001c0: 2d43 d3af 59a6 12bf 2c77 c6ba 8130 823d
000001d0: f182 cbbe 5530 55bd 3c22 bebd 31f3 6dbd
000001e0: e33f a73e b5cf e7be 05d4 66bd 24c6 08be
000001f0: 0390 30bd 8d1b 2ebd ed2b a1bd 2688 92b0

e.linear2.weight f4 [2, 128]
-0.010107746 -0.3207148 -0.028333928 -0.108498305 -0.0015107911 0.024508316 3.9765438e-13 -0.047972728
-0.19774096 2.7375108e-05 0.036634084 -0.054085165 0.10451985 1.4708631e-38 -0.007436598 -0.0036309944
-0.03584513 0.15337075 0.005536494 3.1143853e-05 4.054984e-06 0.20226887 0.031675335 0.025468465
0.0120510915 -2.2456782e-17 -0.20380041 -0.05582574 -0.00060500234 -2.3795333e-18 0.0038808798 0.0009182361
0.35358757 0.060649917 -8.328573e-39 -0.030683003 -0.2599801 -0.029938847 -0.10000951 -0.0023429845
-0.014447703 -0.0030832964 6.0178067e-05 -0.12879582 0.121107735 -0.025424957 0.00088833104 0.002337811
-0.07301859 0.035260882 0.44290966 0.09744107 0.26964024 -0.0005150451 0.0034501026 0.04850502
-0.011426792 -0.11836543 -0.025741482 0.0073734606 0.00013089953 -0.04170343 0.0030936503 -0.026910057
0.049156517 -0.0008852227 0.18789284 -0.00042562242 0.13223486 -0.020675834 -1.922769e-37 0.026137277
0.10387419 -0.21697628 -0.08119355 0.0037835762 0.008207787 0.08154669 0.094968386 5.3185005e-07
0.017005516 -0.010883763 -0.015725343 -0.117857754 0.101407 0.4090523 -9.783953e-20 -0.000320195
0.0073306896 -0.1180296 0.031843923 -0.022279171 -0.005877768 2.6090276e-11 0.00074988726 0.0247902
0.017331975 -2.230239e-38 -0.015290874 -0.096589655 -0.025813663 -0.012583443 4.8740057e-12 -0.00081782317
-0.25436857 0.008746842 -0.0129154585 0.17042018 0.17495954 -0.0009050523 -0.5571953 0.34500775
-8.392451e-38 -0.44034365 -3.4504187e-27 -0.08453217 -0.32025447 0.064323746 0.004663077 -0.025127877
0.10138278 -0.00014575833 -0.0007781561 0.013890829 0.014416168 -0.0026899504 -0.004004955 1.8417164e-09
0.014353466 0.030515455 -0.12702444 0.002147015 0.014433985 -0.018630793 6.7346e-20 0.02700134
-0.10047315 -0.03861964 0.015753448 -0.22031067 0.09115248 -2.0006921e-38 -0.012593943 -0.0061608627
-0.19341919 -0.060575023 -0.018457938 -3.560824e-06 -8.257521e-09 -0.03625037 0.034611773 0.004862457
-0.014461767 -6.6355325e-26 -0.15607737 -0.08984045 -0.00058960344 -3.3588155e-19 -0.07141688 -7.285518e-05
-0.0014299321 -0.033635866 7.761927e-39 -0.0034915463 0.051915307 -0.00311671 0.01170426 -0.010415635
-0.01323098 -0.008006411 0.0055389255 -0.0922118 0.08878349 -0.030239677 -0.09359264 0.0009677948
0.05096784 -0.023807138 0.034187343 0.07281735 -0.010432655 0.00014328997 0.25362143 -0.023689047
-0.033872057 -0.018358136 0.017326102 0.0034042178 0.00096936245 -0.17958005 -0.0022981174 -0.14087582
0.030274574 -0.0028260562 0.009594703 2.3635998e-06 0.17084897 -0.004518739 7.6392627e-31 -0.00795836
-0.010204952 0.05247332 -0.099736534 -0.011459713 0.026752599 -0.14649296 0.22810042 1.3780947e-09
-0.016622046 0.12718838 0.020646568 -0.07928136 0.051399995 0.25303504 2.5526766e-30 -9.3767e-05
0.004127088 -0.013053796 0.034646433 0.20307392 -0.0031453422 1.1315861e-07 0.00053659943 0.19555005
0.007086408 -2.96231e-39 -0.07094998 -0.12559503 0.03103653 -0.0065640314 5.307391e-19 -0.006057196
0.15743381 -0.021390846 0.018798046 -0.049854424 -0.011351105 0.016369464 -0.058695722 -0.053683978
-7.185347e-17 -0.05751766 -4.9775086e-38 0.026895082 -0.03272045 0.06366484 -0.006514392 0.005380129
-0.21697482 0.03689555 0.04724967 -0.011034356 -0.020004567 -0.004790818 0.013079087 7.7638557e-19
00000000: f69a 25bc bb34 a4be 8e1c e8bc 5c34 debd
00000010: bd05 c6ba aac5 c83c 09dc df2a 0d7f 44bd
00000020: 9b7c 4abe 99a3 e537 9f0d 163d 6888 5dbd
00000030: 810e d63d ae29 a000 b5ae f3bb faf5 6dbb
00000040: 58d2 12bd 390d 1d3e 7a6b b53b 75a0 0238
00000050: 0c10 8836 921f 4f3e ffbd 013d 3ea3 d03c
00000060: f171 453c 9420 cfa3 0eb1 50be 88a9 64bd
00000070: 0599 1eba 1d94 2fa2 5c56 7e3b c8b5 703a
00000080: 6e09 b53e 0c6c 783d acb0 5a80 ec5a fbbc
00000090: 1d1c 85be 5042 f5bc c9d1 ccbd c28c 19bb
000000a0: 0fb6 6cbc 2111 4abb b567 7c38 0de3 03be
000000b0: 5507 f83d 0048 d0bc e3de 683a f635 193b
000000c0: c58a 95bd b76d 103d 0ec5 e23e 2f8f c73d
000000d0: 490e 8a3e 1704 07ba 1e1b 623b 33ad 463d
000000e0: 7037 3bbc 9369 f2bd cddf d2bc 129d f13b
000000f0: 1342 0939 37d1 2abd d7be 4a3b 7b72 dcbc
00000100: 5858 493d 4a0e 68ba fb66 403e 1326 dfb9
00000110: 9368 073e 5e60 a9bc 5cdb 8282 d81d d63c
00000120: febb d43d 082f 5ebe ce48 a6bd e0f5 773b
00000130: f479 063c f301 a73d c97e c23d 75c4 0e35
00000140: 274f 8b3c d051 32bc 6fd2 80bc 685f f1bd
00000150: 79ae cf3d 4e6f d13e 5e04 e79f d8df a7b9
00000160: 4836 f03b 81b9 f1bd c66e 023d cf82 b6bc
00000170: 4b9a c0bb 147e e52d 1594 443a d114 cb3c
00000180: c9fb 8d3c fdd9 f280 9386 7abc ccd0 c5bd
00000190: 2d77 d3bc c92a 4ebc 247d ab2c 2f63 56ba
000001a0: 993c 82be ea4e 0f3c 5c9b 53bc a182 2e3e
000001b0: 9828 333e 0841 6dba 5aa4 0ebf dba4 b03e
000001c0: d976 e481 b974 e1be 67af 8893 341f adbd
000001d0: 65f8 a3be 2bbc 833d bacc 983b fad8 cdbc
000001e0: c6a1 cf3d b4d6 18b9 2cfd 4bba 5c96 633c
000001f0: cb31 6c3c e149 30bb ff3b 83bb a31f fd30
00000200: cd2a 6b3c 8cfb f93c b212 02be efb4 0c3b
00000210: 857c 6c3c 9b9f 98bc 2904 9f1f ea31 dd3c
00000220: dec4 cdbd a12f 1ebd 600d 813c 1f99 61be
00000230: 27ae ba3d 28db d980 d356 4ebc 10e1 c9bb
00000240: ae0f 46be 841d 78bd 1a35 97bc 7ef6 6eb6
00000250: f6dc 0db2 457b 14bd 13c5 0d3d 3f55 9f3b
00000260: 0cf1 6cbc af49 a495 bfd2 1fbe 45fe b7bd
00000270: 9e8f 1aba fc44 c6a0 0343 92bd d4c9 98b8
00000280: 8f6c bbba c3c5 09bd 1885 5400 6dd2 64bb
00000290: 25a5 543d b841 4cbb 39c3 3f3c 57a6 2abc
000002a0: c1c6 58bc 522d 03bc e07f b53b 8ad9 bcbd
000002b0: 1ed4 b53d 33b9 f7bc 7fad bfbd 9cb3 7d3a
000002c0: a7c3 503d 3007 c3bc 0708 0c3d 4321 953d
000002d0: baed 2abc 1c40 1639 abda 813e 880f c2bc
000002e0: 6dbd 0abd cd63 96bc 78ef 8d3c 4c19 5f3b
000002f0: d01c 7e3a d5e3 37be 039c 16bb c041 10be
00000300: 6202 f83c 5b35 39bb 1a33 1d3c 569e 1e36
00000310: 08f3 2e3e ee11 94bb 83e8 770d c863 02bc
00000320: ac32 27bc 44ee 563d ab42 ccbd 85c1 3bbc
00000330: 4428 db3c 4002 16be 2893 693e 6667 bd30
00000340: f52a 88bc ac3d 023e fe22 a93c 445e a2bd
00000350: cd88 523d cf8d 813e 0519 4f0e c6a4 c4b8
00000360: 863c 873b 97df 55bc 6be9 0d3d 9cf2 4f3e
00000370: 1622 4ebb 9b01 f333 94aa 0c3a 463e 483e
00000380: 1935 e83b b741 2080 394e 91bd fc9b 00be
00000390: 5240 fe3c 1617 d7bb 83a5 1c21 717b c6bb
000003a0: 5436 213e db3b afbc 5cfe 993c 2734 4cbd
000003b0: fcf9 39bc 4119 863c ed6a 70bd bbe3 5bbd
000003c0: cdae a5a4 a397 6bbd 2c80 8781 1353 dc3c
000003d0: e105 06bd b662 823d ae76 d5bb cb4b b03b
000003e0: a62e 5ebe ca1f 173d df88 413d 72c9 34bc
000003f0: 9ee0 a3bc 4bfc 9cbb ab49 563c 0926 6521

e.linear2.bias f4 [2]
0.0032939052 0.022415914
00000000: 8fde 573b 94a1 b73c

e.linear3.weight f4 [2, 128]
0.005945156 0.080921896 -0.021639371 -0.42232233 0.05000661 0.0051144916 3.4415958e-20 -0.29274282
-0.07398853 0.017970597 -0.00068200275 0.26256746 0.34602836 4.5928e-40 0.011164233 -0.013759729
-0.114813454 0.5546858 -0.00062239054 -1.1240564e-07 -7.0942654e-08 -0.15229928 -0.058970667 0.016241508
0.06620831 -1.9482358e-38 -0.018813511 0.015679404 0.00051346456 -1.3613648e-11 -0.19119434 -0.00088789
-0.048121784 0.086923316 -5.027814e-39 -0.0053396495 -0.06813851 0.023154572 -0.26194346 0.0121133
-0.020260192 0.0035800675 0.0035235693 -0.39203882 -0.0540225 -0.005784155 0.1301905 -0.008204287
0.08196469 -0.024133796 -0.3392598 0.09077246 0.4528112 -4.3705677e-06 -0.020152098 -0.6141317
0.08240346 -0.37110183 0.0068238224 -0.03497863 1.1793621e-05 0.008951242 -0.0070937295 -0.15196157
-0.058179773 -0.0034181355 0.5755415 -3.802783e-05 -0.3298774 -0.0073642293 -5.1217343e-19 -0.12614673
-0.37223613 0.27383325 0.056972753 -0.010027466 0.029607503 -0.13975008 -0.012316181 8.182949e-06
-0.013782023 0.17952341 -0.024445396 0.25513962 0.01048137 -0.3416567 -1.7944788e-11 1.1326335e-05
-0.006644403 -0.105708204 -0.12432504 -0.053727362 0.01711772 -9.8257085e-21 -0.0032575654 0.7057576
-0.01481261 -2.2787135e-38 0.11748951 9.548484e-05 -0.275473 0.002604078 -6.1804193e-16 -0.005059295
-0.14200115 0.008819225 -0.19129449 -0.45981133 -0.059997402 0.01087715 -0.0546901 0.1590941
1.3758622e-35 -0.046477783 -2.0292266e-38 -0.010605866 -0.34977174 -0.29081857 -0.011441321 -0.032490235
-0.103560045 -0.13514854 0.0021996654 -0.19688636 0.00078964233 0.0036011885 0.059190284 -1.8720363e-10
0.011247172 -0.020180631 -0.09181966 0.26908618 -0.063373804 -0.00050065975 7.053851e-29 0.2487045
-0.018728035 -0.077840045 0.017696837 -0.25195992 0.037215583 1.8446051e-38 0.011646951 0.0087016765
-0.12649047 0.1335259 -0.006599919 -1.6995996e-07 8.770122e-13 -0.09918181 0.046224356 0.0047759023
0.04116856 1.4008607e-10 -0.12012177 -0.22561935 -0.0004174193 2.4742386e-14 0.0682591 -0.00071358104
-0.092504375 0.006692521 1.8466901e-38 -0.020120094 -0.15503561 -0.026429703 -0.017608821 0.008037746
0.0075760772 -0.0021678694 -0.002732437 0.14709717 0.10768774 -0.024185214 -0.29748917 -0.001909978
-0.07021648 -0.0042894757 0.106310025 -0.6329764 0.14531793 -1.3319271e-06 -0.10932357 -0.051042452
0.03133217 0.061223585 -0.021729045 -0.063667424 0.00030115945 -0.16982949 0.010152175 -0.0637677
0.1010957 -0.00882018 0.22924154 -1.5339243e-09 -0.08987268 -0.0020991063 1.9221583e-38 0.2304544
0.251991 0.3097888 0.14883512 -0.0047729574 0.024643939 -0.09295387 -0.16557361 6.143525e-07
-0.005095095 -0.20133512 0.011180324 0.19907396 -0.029248668 0.009015392 -7.647012e-24 4.8520214e-05
0.01924205 0.079202615 -0.100943655 -0.09604726 -0.0087009 -9.476645e-12 -4.8898457e-08 0.08809194
0.017099017 1.4288261e-38 -0.34114316 -0.073529184 0.19297911 0.00045349685 9.530281e-16 1.0589261e-07
-0.16637263 -0.06251392 0.1769995 0.023495 0.117579825 0.021466648 0.013823975 0.048014615
7.31443e-39 0.009547357 2.701842e-38 -0.073928185 -0.043486584 -0.032982346 -0.0042032376 0.04398039
-0.118779324 -0.5308216 -0.01340081 0.24987088 -0.019178811 -0.0035683452 -0.02440855 9.753459e-39
00000000: 95cf c23b 61ba a53d 0d45 b1bc a23a d8be
00000010: bbd3 4c3d 7797 a73b 5786 221f 63e2 95be
00000020: 4c87 97bd 1337 933c 6ec8 32ba 3e6f 863e
00000030: a12a b13e 4900 0500 30ea 363c 7d70 61bc
00000040: 5123 ebbd e3ff 0d3f ec27 23ba a763 f1b3
00000050: 2359 98b3 58f4 1bbe 3a8b 71bd e90c 853c
00000060: 3998 873d e324 d480 cb1e 9abc 1872 803c
00000070: 069a 063a 6c7e 6fad 73c8 43be 4ac1 68ba
00000080: 591b 45bd da04 b23d 80bf 3680 3af8 aebb
00000090: 348c 8bbd a8ae bd3c 741d 86be dd76 463c
000000a0: b4f8 a5bc 919f 6a3b afeb 663b 50b9 c8be
000000b0: b246 5dbd 0289 bdbb a950 053e 466b 06bc
000000c0: 1add a73d 3db4 c5bc 76b3 adbe e9e6 b93d
000000d0: dfd6 e73e e4a6 92b6 0316 a5bc bc37 1dbf
000000e0: 25c3 a83d 0f01 bebe 5f9a df3b c045 0fbd
000000f0: 37dd 4537 3ba8 123c 8472 e8bb d09b 1bbe
00000100: ea4d 6ebd cc02 60bb b056 133f 1280 1fb8
00000110: b1e5 a8be a24f f1bb bb2a 17a1 9c2c 01be
00000120: bc95 bebe df33 8c3e 435c 693d 3e4a 24bc
00000130: 6f8b f23c a51a 0fbe cfc9 49bc 8049 0937
00000140: ffcd 61bc fcd4 373e b641 c8bc a9a1 823e
00000150: 0dba 2b3c a1ed aebe 12d8 9dad 3d06 3e37
00000160: 4bb9 d9bb 8b7d d8bd 209e febd 3911 5cbd
00000170: 763a 8c3c 369a 399e e17c 55bb 88ac 343f
00000180: 97b0 72bc 4321 f880 579e f03d 083f c838
00000190: cc0a 8dbe 2ea9 2a3b 7223 32a6 71c8 a5bb
000001a0: c068 11be 837e 103c b4e2 43be 646c ebbe
000001b0: d6bf 75bd 1336 323c ba02 60bd 90e9 223e
000001c0: 884e 9205 7d5f 3ebd 95f6 dc80 3ac4 2dbc
000001d0: 4815 b3be 2ce6 94be 6174 3bbc 7b14 05bd
000001e0: 4a17 d4bd 6164 0abe 4328 103b 949c 49be
000001f0: 0000 4f3a eb01 6c3b 8371 723d 23d5 4daf
00000200: 0f46 383c da51 a5bc f20b bcbd aac5 893e
00000210: 20ca 81bd b53e 03ba 1cd6 b210 64ac 7e3e
00000220: 896b 99bc 9a6a 9fbd f5f8 903c e400 81be
00000230: 5e6f 183d 16dc c800 dad2 3e3c 7a91 0e3c
00000240: b886 01be 03bb 083e 2244 d8bb 3d7e 36b4
00000250: 64db 762b d51f cbbd c055 3d3d 2c7f 9c3b
00000260: 5da0 283d b906 1a2f 6702 f6bd c208 67be
00000270: 12d9 dab9 0fdc de28 6dcb 8b3d 9d0f 3bba
00000280: ef72 bdbd ef4c db3b 3516 c900 e5d2 a4bc
00000290: a8c1 1ebe 1b83 d8bc 6040 90bc c0b0 033c
000002a0: be40 f83b d012 0ebb b012 33bb a4a0 163e
000002b0: 648b dc3d 1220 c6bc 8050 98be 3a58 faba
000002c0: a8cd 8fbd bb8e 8cbb 12b9 d93d be0a 22bf
000002d0: 39ce 143e abc4 b2b5 09e5 dfbd e411 51bd
000002e0: 2956 003d 95c5 7a3d 1c01 b2bc 1164 82bd
000002f0: f0e4 9d39 c8e7 2dbe 4f55 263c a498 82bd
00000300: 430b cf3d 8482 10bc 4bbe 6a3e 2ad2 d2b0
00000310: 2b0f b8bd 2991 09bb f44d d100 3dfc 6b3e
00000320: f704 813e a39c 9e3e 3c68 183e 7866 9cbb
00000330: 16e2 c93c 995e bebd 218c 29be fbe9 2435
00000340: c1f4 a6bb cb2a 4ebe ad2d 373c 0bda 4b3e
00000350: e79a efbc 4bb5 133c 2bea 1399 2f82 4b38
00000360: 81a1 9d3c fb34 a23d 8cbb cebd 6db4 c4bd
00000370: 388e 0ebc 04b7 26ad 6c04 52b3 8c69 b43d
00000380: 3d13 8c3c dc95 9b00 51aa aebe 7896 96bd
00000390: 519c 453e 51c3 ed39 8858 8926 1467 e333
000003a0: 965d 2abe 4c07 80bd 5b3f 353e 9678 c03c
000003b0: b1cd f03d d3da af3c f47d 623c f9aa 443d
000003c0: a8a5 4f00 856c 1c3c 2e1a 1301 a967 97bd
000003d0: fd1e 32bd 7f18 07bd 50bb 89bb c824 343d
000003e0: 9342 f3bd ede3 07bf 128f 5bbc 27de 7f3e
000003f0: e21c 9dbc e6da 69bb 70f4 c7bc ad34 6a00

e.linear3.bias f4 [2]
-0.12539983 -0.2324369
00000000: d068 00be f003 6ebe

g.linear1.weight f4 [128, 2]
-0.62798774 -0.0016685972 -0.011403252 -0.69213134 0.6109041 0.009658894 0.30747065 0.30564576
0.4842246 0.013972482 -0.59077823 0.0074812146 0.5190562 0.004170049 0.0071407664 0.36655113
-0.6489677 0.0040965397 0.014213168 0.8035527 0.48961833 -0.05378939 0.5341426 0.00781686
0.5731479 0.014876473 -0.6714991 -0.0035208417 0.5255747 0.08071157 -0.6191552 0.0063888873
-0.593334 0.012536506 -0.56308615 0.0014396845 -0.66325456 -0.0056691654 -0.010675762 -0.68606013
0.56881803 0.008259873 0.43451652 -0.34175783 0.5523347 0.014844227 -0.5358238 0.004253698
-0.57517886 0.02437378 0.5535006 0.005306061 0.4267428 0.016681546 -0.5266366 -0.0070103584
0.5640366 0.007404741 -0.6405661 -0.0042174915 -0.0051543745 -0.5832493 0.014010039 0.67942446
-0.5819057 -0.007896903 -0.24806759 -0.24530332 0.5602542 -0.045077242 -0.0118082445 -0.70577836
0.5817686 0.010159888 -0.36598948 -0.19606146 -0.3913862 0.38238797 -0.016116627 -0.73357946
-0.6404037 -0.0058862236 -0.6354619 -0.0065363757 -0.5401154 0.0028332544 -0.40986568 -0.0019354937
-0.5928762 0.17274694 -0.48243728 -0.007997726 0.012680226 0.52177465 -0.6437906 0.0034033153
0.013921423 0.7516396 0.6502908 0.005195528 -0.10736633 -0.45936313 0.494693 -0.04874866
0.32477847 0.13007772 0.012029962 0.7273803 -0.45627233 -0.23290654 -0.65335155 -0.0052434737
-0.30370006 -0.3462948 0.51084083 0.011211759 0.5682363 0.0061123716 -0.2684289 0.20204312
-0.6100686 -0.0039620386 0.029783806 0.30885023 0.63720995 0.0027236533 0.5803464 0.011984812
-0.013143125 -0.73722625 -0.60479224 0.028480345 0.56969887 0.0036510592 0.581212 0.009119584
-0.01647549 -0.681458 -0.012658198 -0.7722861 0.51093554 0.009419193 0.51621187 0.0051422836
-0.5452193 -0.0053393305 0.01479141 0.6874478 0.45528683 0.007898589 -0.6878301 0.04257212
0.6224909 0.00523449 -0.57909703 0.0001293059 0.62567633 0.003489106 -0.009335206 -0.62786996
0.6350175 0.0030760174 -0.55931294 -0.00078566 0.014755625 0.72039515 0.48911852 -0.018701384
-0.009950646 -0.7293543 0.0075728395 0.6191306 0.25927588 0.37919468 0.2494073 0.026571082
0.015669143 0.70856184 -0.47043285 -0.3131358 0.5810637 0.015202389 -0.0097409785 -0.7221469
-0.4696139 -0.30821216 -0.011617418 -0.7255243 0.65484303 0.006366273 0.4797264 0.0057800724
-0.3524696 0.00045050023 0.56498796 0.0033957118 -0.36295465 -0.0007192977 0.5560409 0.010516602
0.01795013 0.58222187 0.5663217 0.008657785 0.43819034 0.01815925 0.62898916 0.0036568707
0.013972204 0.7822448 -0.5100672 -0.017662946 -0.6265745 -0.0010965785 0.60120213 0.006505998
0.016312638 0.7582985 0.5046692 -0.049460612 0.14657418 -0.27386257 -0.011637374 -0.75911963
0.57117486 -4.597561e-06 -0.61152774 -0.0039611333 -0.65318966 0.009354519 0.34303576 0.0052279457
-0.014721976 -0.6862237 0.57695025 0.0025894078 -0.010428065 -0.67915064 0.5821128 0.0107446015
0.5998819 0.012867143 -0.45364428 -0.15019527 0.49979442 0.017196575 0.5331452 0.016669003
0.5173683 0.011359292 0.0146164615 0.79289657 -0.0104570035 -0.7021577 -0.5891314 0.017052377
00000000: cec3 20bf d5b4 daba b5d4 3abc 852f 31bf
00000010: 3664 1c3f 5640 1e3c cb6c 9d3e 9a7d 9c3e
00000020: 49ec f73e d6ec 643c 3e3d 17bf fa24 f53b
00000030: dee0 043f e8a4 883b 17fd e93b 97ac bb3e
00000040: bf22 26bf 443c 863b 59de 683c a1b5 4d3f
00000050: 41af fa3e 4352 5cbd 92bd 083f 4a12 003c
00000060: d2b9 123f 73bc 733c 5de7 2bbf ecbd 66bb
00000070: 108c 063f 1c4c a53d f580 1ebf df59 d13b
00000080: bde4 17bf eb65 4d3c 6a26 10bf ccb3 bc3a
00000090: 0dcb 29bf 68c4 b9bb 64e9 2ebc a3a1 2fbf
000000a0: 0f9e 113f 6b54 073c f378 de3e e2fa aebe
000000b0: cf65 0d3f 3335 733c c02b 09bf 9b62 8b3b
000000c0: ec3e 13bf 85ab c73c 37b2 0d3f 77de ad3b
000000d0: 087e da3e bda7 883c a8d1 06bf 26b7 e5bb
000000e0: b464 103f 78a3 f23b 24fc 23bf e232 8abb
000000f0: 07e6 a8bb d34f 15bf 5d8a 653c c3ee 2d3f
00000100: c6f7 14bf 0362 01bc 6e05 7ebe cb30 7bbe
00000110: d26c 0f3f eaa2 38bd 5e77 41bc e4ad 34bf
00000120: c9ee 143f a975 263c f962 bbbe 56c4 48be
00000130: c663 c8be 5bc8 c33e 0407 84bc ddcb 3bbf
00000140: 7ff1 23bf 39e1 c0bb a2ad 22bf 182f d6bb
00000150: 0145 0abf 1fae 393b ead9 d1be 64b0 fdba
00000160: bcc6 17bf 93e4 303e 0502 f7be e508 03bc
00000170: b9c0 4f3c 0693 053f 76cf 24bf 280a 5f3b
00000180: ae16 643c 746b 403f 7579 263f 3f3f aa3b
00000190: e1e2 dbbd a531 ebbe 6748 fd3e adac 47bd
000001a0: 5d49 a63e 1833 053e 5119 453c 9835 3a3f
000001b0: 879c e9be 0d7f 6ebe 0c42 27bf 72d1 abbb
000001c0: 937e 9bbe 8d4d b1be 77c6 023f 87b1 373c
000001d0: ef77 113f 4a4a c83b 836f 89be 64e4 4e3e
000001e0: 752d 1cbf fdd3 81bb 2bfd f33c 9e21 9e3e
000001f0: 3120 233f 527f 323b 9591 143f f25b 443c
00000200: 4356 57bc dcba 3cbf aad3 1abf 9d4f e93c
00000210: c9d7 113f 9c46 6f3b 4fca 143f 4f6a 153c
00000220: 9bf7 86bc 0874 2ebf 5564 4fbc 8bb4 45bf
00000230: accc 023f f552 1a3c 7626 043f 9a80 a83b
00000240: 7e93 0bbf 8df5 aebb ac57 723c 94fc 2f3f
00000250: 5b1b e93e 1569 013c a215 30bf 1a60 2e3d
00000260: 905b 1f3f 1686 ab3b b43f 14bf 4a96 0739
00000270: 532c 203f 7ca9 643b b1f2 18bc 16bc 20bf
00000280: 8290 223f 0297 493b 222f 0fbf c0f4 4dba
00000290: 94c1 713c d16b 383f be6d fa3e a533 99bc
000002a0: 0908 23bc f7b6 3abf 9525 f83b 587f 1e3f
000002b0: cfbf 843e ce25 c23e a164 7f3e 99ab d93c
000002c0: 935c 803c 4f64 353f 93dc f0be 5653 a0be
000002d0: 97c0 143f 7113 793c a098 1fbc 9fde 38bf
000002e0: 3c71 f0be fccd 9dbe fc56 3ebc f6bb 39bf
000002f0: cba3 273f 2b9c d03b b39e f53e c366 bd3b
00000300: e576 b4be 1e31 ec39 0da3 103f 978a 5e3b
00000310: 31d5 b9be 408f 3cba b258 0e3f d34d 2c3c
00000320: 270c 933c 7e0c 153f 75fa 103f 62d9 0d3c
00000330: 7c5a e03e b5c2 943c 6f05 213f 1ca8 6f3b
00000340: aceb 643c 3241 483f c493 02bf e2b1 90bc
00000350: 3067 20bf 12bb 8fba 62e8 193f 4430 d53b
00000360: 15a2 853c da1f 423f 0032 013f 3697 4abd
00000370: 8b17 163e b737 8cbe afaa 3ebc aa55 42bf
00000380: 8438 123f c044 9ab6 158d 1cbf 65cc 81bb
00000390: 7037 27bf b243 193c 62a2 af3e 304f ab3b
000003a0: 7134 71bc 5bac 2fbf 03b3 133f 0eb3 293b
000003b0: 7ada 2abc d1dc 2dbf 5805 153f 200a 303c
000003c0: dc91 193f b6d0 523c 1044 e8be cacc 19be
000003d0: 0ee5 ff3e d5df 8c3c 347c 083f 6f8d 883c
000003e0: 4072 043f 531c 3a3c e279 6f3c 45fb 4a3f
000003f0: da53 2bbc 9bc0 33bf 51d1 16bf 6db1 8b3c

g.linear1.bias f4 [128]
-9.011138e-05 -1.0071399e-06 0.00017718083 7.086225e-06 4.4836805e-05 7.6588796e-05 8.341424e-05 -1.6679574e-05
-0.000114524 -5.8438043e-05 -2.2349492e-05 -6.8131514e-05 6.1442755e-05 -8.017507e-05 -3.3123797e-05 -4.600008e-05
5.6509438e-05 5.2526942e-05 -5.0981445e-05 5.07438e-05 6.614393e-05 -4.4922554e-06 7.103464e-05 3.9539515e-05
6.297956e-05 0.00017910235 6.1355844e-05 6.3992535e-05 -7.0786526e-05 -0.0001199406 3.4295812e-05 7.4213094e-05
-0.000107066655 -2.3343227e-07 -3.443229e-05 -0.00012328512 0.00015732083 5.1769293e-06 -5.70294e-06 -0.00010141477
8.5704574e-05 -2.116224e-05 -3.5416688e-05 -8.004492e-06 -2.223477e-05 -3.542272e-05 8.092812e-06 2.4281244e-05
5.2873416e-05 5.3025193e-05 -1.1057962e-05 4.7899475e-06 6.1177752e-06 -5.3625213e-06 -3.804234e-06 3.8364764e-05
2.6016321e-05 -3.2995405e-05 3.9014834e-05 3.5958637e-06 5.6490666e-05 3.9298593e-06 -5.279704e-05 -2.315068e-05
-1.2145025e-05 -3.5684134e-05 6.896876e-05 7.8036035e-05 6.114428e-05 0.00013206262 7.958063e-05 -5.8650035e-05
0.0001440518 -7.116896e-05 5.320725e-06 1.377202e-05 9.876584e-05 1.743004e-05 1.5985588e-05 -6.1029496e-06
0.00017978289 1.0138458e-05 8.449599e-06 2.3198609e-06 -1.5828162e-05 7.0586293e-06 -1.070445e-06 -2.5768018e-06
-5.2143965e-05 1.40587235e-05 3.0971518e-05 -5.0115625e-05 9.215836e-05 -4.5319666e-08 -1.11602285e-05 -3.5693494e-05
-1.7072252e-05 0.00015074767 -9.390944e-06 3.7327856e-05 2.416666e-05 -1.5509824e-05 -4.2837117e-05 2.3237953e-07
-1.8824603e-05 -7.1158e-05 -1.982057e-05 8.645919e-05 -3.5532947e-05 -5.816785e-05 -2.5658042e-06 7.689062e-05
8.07568e-06 -6.771497e-05 -7.3541814e-06 -1.5078552e-05 -0.00012850248 1.3681037e-05 4.5300327e-05 -0.00022398274
7.72997e-06 2.1448053e-05 6.0686416e-05 0.00012828506 2.2680939e-05 0.00012441605 -4.301033e-05 7.653324e-05
00000000: 2efa bcb8 102d 87b5 9ec9 3939 36c6 ed36
00000010: 270f 3c38 4c9e a038 aeee ae38 1deb 8bb7
00000020: 9b2c f0b8 5f1b 75b8 2b7b bbb7 d4e1 8eb8
00000030: d4da 8038 aa23 a8b8 68ee 0ab8 36f0 40b8
00000040: 8c04 6d38 6050 5c38 e9d4 55b8 bed5 5438
00000050: c1b6 8a38 2ebc 96b6 6ff8 9438 3bd7 2538
00000060: e513 8438 6ccd 3b39 2bac 8038 bb33 8638
00000070: 3a73 94b8 9f88 fbb8 d9d8 0f38 daa2 9b38
00000080: f988 e0b8 60a5 7ab4 646b 10b8 1946 01b9
00000090: 7df6 2439 7cb5 ad36 e25b bfb6 a4ae d4b8
000000a0: 4bbc b338 9085 b1b7 618c 14b8 084b 06b7
000000b0: ce84 bab7 db92 14b8 5dc6 0737 93af cb37
000000c0: 66c4 5d38 5e67 5e38 9685 39b7 56b9 a036
000000d0: 4a47 cd36 b5ef b3b6 3e4c 7fb6 dae9 2038
000000e0: a03d da37 8c64 0ab8 dca3 2338 7850 7136
000000f0: 64f0 6c38 3cdd 8336 6472 5db8 b533 c2b7
00000100: 7cc2 4bb7 8cab 15b8 52a3 9038 47a7 a338
00000110: 963a 8038 4a7a 0a39 87e4 a638 fffe 75b8
00000120: 9c0c 1739 8b40 95b8 ae88 b236 600e 6737
00000130: 8220 cf38 ba36 9237 ca18 8637 f0c7 ccb6
00000140: 1a84 3c39 5818 2a37 c0c2 0d37 e8ae 1b36
00000150: b8c6 84b7 2ad9 ec36 36ac 8fb5 1eed 2cb6
00000160: 28b5 5ab8 c2dd 6b37 6ae7 0138 3e33 52b8
00000170: 2545 c138 80a5 42b3 d13c 3bb7 99b5 15b8
00000180: 6236 8fb7 0512 1e39 cc8d 1db7 7b90 1c38
00000190: 82b9 ca37 181b 82b7 01ac 33b8 0084 7934
000001a0: 87e9 9db7 a93a 95b8 5a44 a6b7 6d51 b538
000001b0: 3609 15b8 41f9 73b8 2e30 2cb6 5640 a138
000001c0: c87c 0737 3302 8eb8 f0c3 f6b6 e3f9 7cb7
000001d0: 9fbe 06b9 9b87 6537 db00 3e38 e9dc 6ab9
000001e0: f8af 0137 58eb b337 8b89 7e38 4284 0639
000001f0: f242 be37 ae75 0239 fd65 34b8 7880 a038

g.linear2_mu.weight f4 [3, 128]
-0.03868053 1.1527524 0.11991449 -0.22298922 -0.13033094 -0.05067654 -0.034846988 -0.40532365
-0.017396733 -1.3329682 0.25124475 0.014397944 -0.07102559 -0.001350876 -0.14109911 0.0043518823
-0.1307061 -0.021525227 0.059423547 1.16344 0.013739781 0.3473682 -0.11171053 -0.02971951
-0.20822892 0.0645518 -0.038955767 0.10944835 0.042428095 0.0057901675 0.8555909 -1.048009
0.15887247 0.2534516 0.19485506 1.1919441 0.020836106 0.22438334 -0.28822955 1.268366
-0.0029374151 0.023096649 0.10536361 -0.03185329 -0.21793129 0.20288087 -0.739598 -0.10440096
-1.2064513 0.19537613 0.49802125 0.22271848 -0.22664845 -1.1356336 0.20100735 0.020108597
0.3546363 -0.09739673 0.045740902 -0.15986808 0.03217116 -0.29507315 0.17219797 -0.007992529
1.2608311 -0.1284638 0.06373472 0.111653306 1.156383 1.3360362 -0.013420734 0.015767476
0.19824709 -1.1145426 -0.028403843 -0.103935935 0.12903531 0.21275511 0.036421772 0.9772722
0.19419599 0.16361524 -1.155264 0.19847998 1.2117909 -0.8547394 -0.26994407 -0.097472034
-1.1449301 0.2374637 -0.11419114 1.2109348 0.27576882 1.2298267 0.098144144 0.00032114406
-0.17877942 0.060546357 -0.111196846 -0.034322813 -0.8312971 0.10863039 -0.1194689 0.25035104
-1.2887129 0.18065423 0.17305109 0.21110626 -1.2405851 0.1445106 0.22539842 1.3084562
0.061300095 0.021848783 -0.012149766 -0.15585648 1.1726853 0.093482 1.1370009 -0.046231896
-0.09318616 0.10091456 -0.12019629 -0.1816693 -0.032382242 -1.3291541 1.170297 -0.070700884
-0.581442 -0.0033370263 0.63094485 0.1615521 0.60484266 -0.50890476 0.65777105 -0.027310433
-0.59718597 -0.08632462 0.21239918 0.59891057 0.7450809 -0.81442267 0.36060774 -0.71899533
-0.5242157 -0.50407076 -0.77412176 -0.026667727 0.6560265 0.15402922 0.6972351 -0.50410634
-0.4683648 0.6489312 0.50443655 -0.5802405 0.64749855 -0.79518396 0.11196823 0.06683319
-0.63987136 -0.14667982 0.3397729 -0.007944786 0.647205 -0.31392974 -0.20059074 -0.10294341
-0.7555754 -0.6952372 -0.6091621 -0.33204696 -0.23887151 -0.49038652 -0.051491573 -0.56915426
0.013336479 0.7006581 -0.100608476 0.30455017 0.2663692 -0.015371846 -0.35702908 -0.78712803
-0.16317078 0.6250168 0.6771719 -0.12011058 -0.6609045 0.037639774 0.60216534 0.6604198
-0.05155611 -0.3500123 0.69689715 0.61936593 -0.10077567 -0.030682713 0.5975615 0.6444243
-0.57971966 0.013492483 0.55215865 -0.4763852 0.6545453 -0.6717781 0.8049422 0.049425814
0.60729975 -0.6435612 -0.033857744 0.3458336 0.03841145 -0.06871469 0.16379848 0.19986217
-0.0050960784 -0.33690557 0.7848502 -0.0012323209 -0.36804116 0.037087064 0.7801971 0.5585289
-0.18007304 0.68893087 -0.23450291 0.70716244 0.09987958 0.55093634 0.46966124 0.5947184
-0.07713163 -0.50879216 -0.7740814 0.55898374 0.0002848269 0.27402127 0.045481797 -0.040527698
0.5535282 -0.714057 -0.7585905 0.30025366 -0.034960594 0.6912113 -0.035882074 0.72362834
0.81570905 -0.33417875 0.60676336 0.70823425 0.66653556 -0.061990228 -0.01621847 -0.44600347
00000000: 7a6f 1ebd 648d 933f ba95 f53d 4957 64be
00000010: 7975 05be 3492 4fbd b7bb 0ebd 9586 cfbe
00000020: 9883 8ebc b49e aabf 27a3 803e 5be5 6b3c
00000030: dd75 91bd e00f b1ba 497c 10be 3c9a 8e3b
00000040: d2d7 05be ac55 b0bc 1b66 733d 9aeb 943f
00000050: d21c 613c 3fda b13e 7ec8 e4bd 5476 f3bc
00000060: f639 55be bc33 843d 1590 1fbd 7526 e03d
00000070: 15c9 2d3d 72bb bd3b 0108 5b3f 2925 86bf
00000080: 77af 223e 68c4 813e 1688 473e a091 983f
00000090: 7bb0 aa3c bfc4 653e d392 93be d159 a23f
000000a0: a681 40bb 2f35 bd3c e0c8 d73d 9878 02bd
000000b0: 6129 5fbe 01c0 4f3e 4b56 3dbf 2cd0 d5bd
000000c0: ff6c 9abf ae10 483e a4fc fe3e 5010 643e
000000d0: 8816 68be 715c 91bf dfd4 4d3e c9ba a43c
000000e0: e492 b53e f077 c7bd d05a 3b3d 75b4 23be
000000f0: e8c5 033d d413 97be aa54 303e 19f3 02bc
00000100: ea62 a13f 048c 03be 5987 823d 7daa e43d
00000110: 5c04 943f 3c03 ab3f a3e2 5bbc cb2a 813c
00000120: 4901 4b3e 55a9 8ebf 2daf e8bc 5ddc d4bd
00000130: d521 043e 7adc 593e ff2e 153d 832e 7a3f
00000140: 50db 463e c18a 273e b1df 93bf 563e 4b3e
00000150: f71b 9b3f 34d0 5abf 1c36 8abe 6b9f c7bd
00000160: 128d 92bf af29 733e 0bdd e9bd e9ff 9a3f
00000170: 9231 8d3e f66a 9d3f ccff c83d 3a5f a839
00000180: f411 37be 75ff 773d 2cbb e3bd 1496 0cbd
00000190: e3cf 54bf 9c79 de3d 1cac f4bd 032e 803e
000001a0: 8bf4 a4bf 6cfd 383e 4e34 313e 3d2c 583e
000001b0: 7ecb 9ebf 96fa 133e d8ce 663e 7e7b a73f
000001c0: cf15 7b3d 38fc b23c d00f 47bc d798 1fbe
000001d0: 8d1a 963f 7e73 bf3d 3f89 913f a85d 3dbd
000001e0: 63d8 bebd 4bac ce3d 7929 f6bd 8407 3abe
000001f0: 3ea3 04bd b921 aabf 4bcc 953f a0cb 90bd
00000200: 62d9 14bf 03b2 5abb 9a85 213f ea6d 253e
00000210: f8d6 1a3f 9547 02bf af63 283f 21ba dfbc
00000220: 2ee1 18bf f6ca b0bd 2c7f 593e 3452 193f
00000230: 9fbd 3e3f 017e 50bf 94a1 b83e 1410 38bf
00000240: 0033 06bf c80a 01bf d82c 46bf 4776 dabc
00000250: 5af1 273f d6b9 1d3e 007e 323f 1d0d 01bf
00000260: 83cd efbe 5b20 263f c122 013f a48a 14bf
00000270: 77c2 253f 2d91 4bbf 994f e53d d7df 883d
00000280: 9cce 23bf 3c33 16be b7f6 ad3e d92a 02bc
00000290: 3aaf 253f 66bb a0be a967 4dbe ffd3 d2bd
000002a0: 646d 41bf 11fb 31bf 0cf2 1bbf 0f02 aabe
000002b0: bc9a 74be f113 fbbe d4e8 52bd 18b4 11bf
000002c0: 3f81 5a3c 545e 333f d10b cebd 00ee 9b3e
000002d0: 8b61 883e 32da 7bbc 84cc b6be 3981 49bf
000002e0: 3e16 27be 1a01 203f 235b 2d3f 89fc f5bd
000002f0: 0a31 29bf 2a2c 1a3d 8227 1a3f 4611 293f
00000300: 802c 53bd d034 b3be da67 323f c48e 1e3f
00000310: 7963 cebd 505a fbbc caf9 183f fef8 243f
00000320: 8268 14bf 930f 5d3c 455a 0d3f c3e8 f3be
00000330: 4890 273f a6f9 2bbf b110 4e3f b972 4a3d
00000340: ff77 1b3f 6dc0 24bf 6bae 0abd 1a11 b13e
00000350: 5355 1d3d 4aba 8cbd caba 273e aba8 4c3e
00000360: 01fd a6bb e37e acbe f1eb 483f d485 a1ba
00000370: e46f bcbe 9be8 173d ffba 473f c0fb 0e3f
00000380: 1165 38be c65d 303f 8821 70be 9908 353f
00000390: aa8d cc3d 2a0a 0d3f 7077 f03e 773f 183f
000003a0: 30f7 9dbd 3440 02bf 332a 46bf 8f19 0f3f
000003b0: d254 9539 844c 8c3e 1f4b 3a3d 5f00 26bd
000003c0: 06b4 0d3f 71cc 36bf fd32 42bf d9ba 993e
000003d0: d732 0fbd 39f3 303f 15f9 12bd b53f 393f
000003e0: 4fd2 503f 7a19 abbe d854 1b3f d74e 353f
000003f0: 13a2 2a3f 77e9 7dbd 99dc 84bc 915a e4be

g.linear2_mu.bias f4 [3]
-0.06161664 0.022928778 0.028022623
00000000: bb61 7cbd 22d5 bb3c b38f e53c

g.bn1.weight f4 [128]
1.2358773 1.3382436 1.2530948 0.5714395 0.982996 1.1497221 0.9499899 0.4588306
1.2743826 1.8070165 0.7681503 0.9697372 1.2149816 1.4106355 0.6927865 1.2092702
1.2745318 1.013974 1.4111675 1.2906684 1.1088649 0.76359224 1.1559699 0.931245
1.1219862 1.0609316 0.71137094 1.0488669 1.0803478 1.325614 1.003628 1.3424098
1.1945275 0.45775443 0.78657794 1.3799558 1.1266092 0.7902972 0.7459866 1.529995
1.3256812 1.2837582 0.99074525 0.57799906 0.9059939 1.0152731 0.8469004 1.3768735
1.6031551 1.3873525 0.6855359 0.7502277 0.6221022 1.5241646 0.8470422 1.3671336
0.7497879 0.9822773 1.1095184 0.375635 1.2010665 0.31722856 1.3704197 1.1490108
1.5132997 0.99260306 1.1067561 1.1442324 1.3451219 1.6338387 0.9430972 0.9333765
1.1259732 1.3416361 0.7911069 1.1320949 1.2835379 1.1977905 1.2832689 1.130991
1.3632674 1.1322047 1.4787664 0.78236496 1.4632713 1.1544249 0.5608033 0.39187992
1.429951 0.85193926 1.2546633 1.4210197 0.9801708 1.4675881 1.3928585 0.8161938
0.6156304 1.097664 0.54632396 1.12798 1.0747861 1.0699711 0.81761897 1.3439063
1.7170795 1.0360847 1.3548713 1.2395742 1.6237315 0.6644281 0.29850802 1.5771537
1.053287 1.2098134 1.3415909 0.5987476 1.3551669 1.1214486 1.2764161 1.1975402
1.3108435 0.63834566 1.0321463 1.133945 1.0114125 1.7655108 1.3640416 1.0852115
00000000: 3a31 9e3f 914b ab3f 6965 a03f dc49 123f
00000010: a0a5 7b3f 182a 933f 8a32 733f d8eb ea3e
00000020: f81e a33f 514c e73f 80a5 443f b240 783f
00000030: 8484 9b3f b48f b43f 755a 313f 5ec9 9a3f
00000040: dc23 a33f e6c9 813f 23a1 b43f 9f34 a53f
00000050: 49ef 8d3f c87a 433f d2f6 933f 1366 6e3f
00000060: 3e9d 8f3f 9bcc 873f 681c 363f 4541 863f
00000070: d648 8a3f b8ad a93f e276 803f 16d4 ab3f
00000080: 47e6 983f ca5e ea3e 2c5d 493f 64a2 b03f
00000090: bb34 903f eb50 4a3f faf8 3e3f e0d6 c33f
000000a0: ecaf a93f 3052 a43f 7ba1 7d3f bff7 133f
000000b0: 37ef 673f 78f4 813f 77ce 583f 643d b03f
000000c0: 3034 cd3f c494 b13f 487f 2f3f ec0e 403f
000000d0: 1742 1f3f d317 c33f c2d7 583f 3cfe ae3f
000000e0: 1af2 3f3f 8676 7b3f b304 8e3f 3b53 c03e
000000f0: 8cbc 993f c86b a23e ea69 af3f c912 933f
00000100: ceb3 c13f 3c1b 7e3f 2faa 8d3f 3576 923f
00000110: f42c ac3f a021 d13f d16e 713f c3f1 6e3f
00000120: e41f 903f bbba ab3f fb85 4a3f 7ce8 903f
00000130: f84a a43f 3351 993f 2842 a43f 50c4 903f
00000140: 8c7f ae3f 15ec 903f 3848 bd3f 1249 483f
00000150: 794c bb3f 32c4 933f ce90 0f3f 7ca4 c83e
00000160: a208 b73f b118 5a3f cf98 a03f f9e3 b53f
00000170: 79ec 7a3f edd9 bb3f 3049 b23f 14f2 503f
00000180: f499 1d3f 4180 8c3f e3db 0b3f a661 903f
00000190: 9792 893f d0f4 883f 7a4f 513f 1f05 ac3f
000001a0: 43c9 db3f 6c9e 843f 6c6c ad3f 5eaa 9e3f
000001b0: 6fd6 cf3f f617 2a3f 0bd6 983e 2ce0 c93f
000001c0: 1cd2 863f 2adb 9a3f 40b9 ab3f 8647 193f
000001d0: 1c76 ad3f a18b 8f3f 9a61 a33f ff48 993f
000001e0: b8c9 a73f 9f6a 233f 5f1d 843f 1c25 913f
000001f0: f775 813f 42fc e13f ea98 ae3f 36e8 8a3f

g.bn1.bias f4 [128]
0.22264057 0.2822726 0.19267936 0.0971904 0.21250452 0.24996138 0.14203733 0.025728336
0.30014047 0.29950345 0.22709928 0.1303438 0.23084137 0.23894006 0.2562019 0.18490385
0.29848254 0.21694846 0.24794643 0.2407298 0.22709367 0.10938731 0.21780506 0.16326796
0.30676946 0.16243394 0.1758757 0.24777307 0.17581192 0.21947706 0.27286258 0.20527819
0.21256109 0.037111185 0.2129152 0.2842722 0.16938917 0.10847014 0.07472209 0.27675164
0.23558164 0.207987 0.1307913 0.10073563 0.2590156 0.25014812 0.08294904 0.3039615
0.26165217 0.22292215 0.2344725 0.20032638 0.1693993 0.24353853 0.11922088 0.24558333
0.20751242 0.16714522 0.20447522 -0.11114 0.25232157 0.052835945 0.26549816 0.19560568
0.30261663 0.31538942 0.16089967 0.1593302 0.23543651 0.33361325 0.16575243 0.11791318
0.20092285 0.17586207 0.14441054 0.3619676 0.2254506 0.22850667 0.20580381 0.30793935
0.2541486 0.20575386 0.23298545 0.17080255 0.34971884 0.21488293 0.13301224 0.065539025
0.22291104 0.1573282 0.2225131 0.318061 0.17701168 0.29636452 0.21093003 0.10370451
0.1390543 0.18055956 0.1058628 0.2145464 0.17913069 0.14737672 0.17832172 0.22897261
0.27171934 0.2984474 0.24535547 0.19691372 0.27841207 0.17708915 0.041749336 0.30637413
0.2575259 0.19588195 0.21666731 0.11544625 0.23820578 0.14863153 0.23835677 0.22256161
0.24058355 0.06811387 0.21346943 0.22706902 0.20143117 0.27923012 0.2853791 0.30877754
00000000: e4fb 633e 0986 903e bd4d 453e c30b c73d
00000010: c99a 593e e0f5 7f3e 3c72 113e 3bc4 d23c
00000020: 03ac 993e 8458 993e b78c 683e d878 053e
00000030: ae61 6c3e b4ac 743e e52c 833e 6f57 3d3e
00000040: b4d2 983e bd27 5e3e abe5 7d3e df81 763e
00000050: 3e8b 683e 7406 e03d 4a08 5f3e b72f 273e
00000060: e310 9d3e 1555 263e c218 343e 39b8 7d3e
00000070: 0a08 343e 98be 603e a5b4 8b3e 7234 523e
00000080: 9da9 593e e601 183d 7106 5a3e 208c 913e
00000090: 5b74 2d3e 9825 de3d e507 993d 64b2 8d3e
000000a0: 503c 713e 8bfa 543e 28ee 053e 7b4e ce3d
000000b0: b19d 843e 6a13 803e 30e1 a93d d7a0 9b3e
000000c0: 46f7 853e b445 643e 8f19 703e 5c22 4d3e
000000d0: 0377 2d3e 2a62 793e 142a f43d 327a 7b3e
000000e0: 237e 543e 1e28 2b3e f461 513e 5e9d e3bd
000000f0: 4b30 813e 816a 583d 60ef 873e db4c 483e
00000100: 91f0 9a3e b97a a13e e2c2 243e 7527 233e
00000110: 4516 713e 5bcf aa3e 01bb 293e 777c f13d
00000120: b8be 4d3e 3015 343e 5be0 133e d153 b93e
00000130: 86dc 663e a7fd 693e 3cbe 523e 3aaa 9d3e
00000140: c41f 823e 24b1 523e bd93 6e3e dde6 2e3e
00000150: 590e b33e 450a 5c3e 5c34 083e 5339 863d
00000160: cb42 643e a51a 213e 79da 633e e4d8 a23e
00000170: 8d42 353e 17bd 973e 0bfe 573e 0863 d43d
00000180: 4064 0e3e 9be4 383e 98ce d83d 0db2 5b3e
00000190: 096e 373e ece9 163e f899 363e cc77 6a3e
000001a0: cc1e 8b3e 19ce 983e 773e 7b3e c0a3 493e
000001b0: 078c 8e3e dc56 353e 5a01 2b3d 12dd 9c3e
000001c0: 6fda 833e 4795 483e 09de 5d3e 156f ec3d
000001d0: 37ec 733e dd32 183e cc13 743e 31e7 633e
000001e0: 895b 763e 497f 8b3d bb97 5a3e c884 683e
000001f0: f943 4e3e 40f7 8e3e 361d 923e 1718 9e3e

g.bn1.running_mean f4 [128]
-0.026030842 -0.0150383385 0.025597988 0.019120634 0.020343991 -0.024220126 0.021593504 0.008011928
-0.026689868 0.017491607 0.01907157 0.022254674 0.024014007 -0.027842738 0.02341023 -0.025388395
-0.02413527 -0.023232868 -0.027471498 -0.014873791 0.023719015 0.010733837 0.023123765 -0.022021946
-0.02322458 0.022959538 0.018000118 -0.02187511 0.023453806 -0.026625736 -0.012498693 0.01490206
-0.024191927 -0.015431791 0.02214258 -0.015364549 0.024282465 -0.019242989 -0.008069921 -0.016150214
-0.026561392 -0.026323577 -0.022240246 -0.016958939 -0.020824814 -0.020157006 0.011504723 -0.02651434
0.01646119 0.027077688 -0.014157816 0.019364364 0.01614994 0.015851265 -0.023759875 -0.027057352
-0.019861994 0.02136474 0.02363025 -0.0068080346 -0.025297187 0.0077233724 0.02637007 0.02420185
-0.016033767 -0.02438212 0.02363758 0.024225106 -0.015035443 -0.016757617 0.021315446 0.021409295
-0.022584012 0.0151080955 0.018985111 -0.027477343 0.02577789 -0.023909805 0.025933212 -0.013656255
0.02628888 -0.023131168 0.015845684 0.019751215 -0.015750341 0.013390914 0.018694328 0.010852149
0.015589426 -0.026028195 0.024337124 -0.01562832 -0.02588498 -0.01578601 0.027179077 0.019968837
-0.014538007 0.023460163 -0.0150041515 0.023183823 0.013025938 0.02349251 0.018459305 0.02597239
0.01703284 -0.021400066 -0.025948336 0.024999231 0.016675401 0.01977008 0.00027841973 -0.016501682
0.023555212 -0.025360545 -0.026771802 0.014232601 -0.015117698 0.023900121 -0.014759515 0.024244713
0.024995197 -0.021912685 0.021001602 0.022396559 0.02158994 0.017300518 -0.015211 -0.023918342
00000000: a23e d5bc 5d63 76bc dfb2 d13c e0a2 9c3c
00000010: 71a8 a63c 4969 c6bc dce4 b03c 7644 033c
00000020: b6a4 dabc 8f4a 8f3c fb3b 9c3c 6f4f b63c
00000030: 06b9 c43c 7416 e4bc d0c6 bf3c 53fb cfbc
00000040: 54b7 c5bc db52 bebc e80b e1bc 33b1 73bc
00000050: 614e c23c fadc 2f3c 0d6e bd3c 5e67 b4bc
00000060: 7941 bebc a415 bc3c fc74 933c 6e33 b3bc
00000070: 3222 c03c 371e dabc 51c7 4cbc c527 743c
00000080: 262e c6bc 9fd5 7cbc 5b64 b53c 97bb 7bbc
00000090: 05ec c63c 79a3 9dbc b437 04bc 744d 84bc
000000a0: 4797 d9bc 8ba4 d7bc 2d31 b6bc 79ed 8abc
000000b0: cd98 aabc 4e20 a5bc 4e7e 3c3c 9a34 d9bc
000000c0: 9ed9 863c 07d2 dd3c 2ff6 67bc 04a2 9e3c
000000d0: e14c 843c 83da 813c 12a4 c2bc 61a7 ddbc
000000e0: 9fb5 a2bc 1b05 af3c 3a94 c13c ef15 dfbb
000000f0: 0c3c cfbc 5814 fd3b 0c06 d83c f542 c63c
00000100: 3f59 83bc 03bd c7bc 99a3 c13c bb73 c63c
00000110: 3857 76bc 4547 89bc bb9d ae3c 8c62 af3c
00000120: 1b02 b9bc f287 773c aa86 9b3c 2a18 e1bc
00000130: 272c d33c 7fde c3bc e371 d43c 7cbe 5fbc
00000140: c75b d73c 937d bdbc cfce 813c 4dcd a13c
00000150: dc06 81bc 9065 5b3c d924 993c 36cd 313c
00000160: cb6a 7f3c 1539 d5bc a65e c73c f606 80bc
00000170: bd0c d4bc aa51 81bc a8a6 de3c b095 a33c
00000180: d230 6ebc 872f c03c f9d3 75bc 00ec bd3c
00000190: be6a 553c 5d73 c03c f837 973c 0dc4 d43c
000001a0: 7488 8b3c 314f afbc 9b91 d4bc 30cb cc3c
000001b0: da9a 883c ddf4 a13c ddf8 9139 892e 87bc
000001c0: dcf6 c03c ebc0 cfbc 8a50 dbbc db2f 693c
000001d0: 39b0 77bc 30ca c33c e5d1 71bc d99c c63c
000001e0: bac2 cc3c 3b82 b3bc 8d0b ac3c fd78 b73c
000001f0: 63dd b03c d1b9 8d3c 8f37 79bc 66f0 c3bc
