simulations/pythoncode/vae_estimate/results/VAEmnist2-q-2-batch_size-64-g.pt (torch, 9196 bytes, 8 tensors)

linear1.weight f4 [128, 2]
00000000: cec3 20bf d5b4 daba b5d4 3abc 852f 31bf
00000010: 3664 1c3f 5640 1e3c cb6c 9d3e 9a7d 9c3e
00000020: 49ec f73e d6ec 643c 3e3d 17bf fa24 f53b
00000030: dee0 043f e8a4 883b 17fd e93b 97ac bb3e
00000040: bf22 26bf 443c 863b 59de 683c a1b5 4d3f
00000050: 41af fa3e 4352 5cbd 92bd 083f 4a12 003c
00000060: d2b9 123f 73bc 733c 5de7 2bbf ecbd 66bb
00000070: 108c 063f 1c4c a53d f580 1ebf df59 d13b
00000080: bde4 17bf eb65 4d3c 6a26 10bf ccb3 bc3a
00000090: 0dcb 29bf 68c4 b9bb 64e9 2ebc a3a1 2fbf
000000a0: 0f9e 113f 6b54 073c f378 de3e e2fa aebe
000000b0: cf65 0d3f 3335 733c c02b 09bf 9b62 8b3b
000000c0: ec3e 13bf 85ab c73c 37b2 0d3f 77de ad3b
000000d0: 087e da3e bda7 883c a8d1 06bf 26b7 e5bb
000000e0: b464 103f 78a3 f23b 24fc 23bf e232 8abb
000000f0: 07e6 a8bb d34f 15bf 5d8a 653c c3ee 2d3f
00000100: c6f7 14bf 0362 01bc 6e05 7ebe cb30 7bbe
00000110: d26c 0f3f eaa2 38bd 5e77 41bc e4ad 34bf
00000120: c9ee 143f a975 263c f962 bbbe 56c4 48be
00000130: c663 c8be 5bc8 c33e 0407 84bc ddcb 3bbf
00000140: 7ff1 23bf 39e1 c0bb a2ad 22bf 182f d6bb
00000150: 0145 0abf 1fae 393b ead9 d1be 64b0 fdba
00000160: bcc6 17bf 93e4 303e 0502 f7be e508 03bc
00000170: b9c0 4f3c 0693 053f 76cf 24bf 280a 5f3b
00000180: ae16 643c 746b 403f 7579 263f 3f3f aa3b
00000190: e1e2 dbbd a531 ebbe 6748 fd3e adac 47bd
000001a0: 5d49 a63e 1833 053e 5119 453c 9835 3a3f
000001b0: 879c e9be 0d7f 6ebe 0c42 27bf 72d1 abbb
000001c0: 937e 9bbe 8d4d b1be 77c6 023f 87b1 373c
000001d0: ef77 113f 4a4a c83b 836f 89be 64e4 4e3e
000001e0: 752d 1cbf fdd3 81bb 2bfd f33c 9e21 9e3e
000001f0: 3120 233f 527f 323b 9591 143f f25b 443c
00000200: 4356 57bc dcba 3cbf aad3 1abf 9d4f e93c
00000210: c9d7 113f 9c46 6f3b 4fca 143f 4f6a 153c
00000220: 9bf7 86bc 0874 2ebf 5564 4fbc 8bb4 45bf
00000230: accc 023f f552 1a3c 7626 043f 9a80 a83b
00000240: 7e93 0bbf 8df5 aebb ac57 723c 94fc 2f3f
00000250: 5b1b e93e 1569 013c a215 30bf 1a60 2e3d
00000260: 905b 1f3f 1686 ab3b b43f 14bf 4a96 0739
00000270: 532c 203f 7ca9 643b b1f2 18bc 16bc 20bf
00000280: 8290 223f 0297 493b 222f 0fbf c0f4 4dba
00000290: 94c1 713c d16b 383f be6d fa3e a533 99bc
000002a0: 0908 23bc f7b6 3abf 9525 f83b 587f 1e3f
000002b0: cfbf 843e ce25 c23e a164 7f3e 99ab d93c
000002c0: 935c 803c 4f64 353f 93dc f0be 5653 a0be
000002d0: 97c0 143f 7113 793c a098 1fbc 9fde 38bf
000002e0: 3c71 f0be fccd 9dbe fc56 3ebc f6bb 39bf
000002f0: cba3 273f 2b9c d03b b39e f53e c366 bd3b
00000300: e576 b4be 1e31 ec39 0da3 103f 978a 5e3b
00000310: 31d5 b9be 408f 3cba b258 0e3f d34d 2c3c
00000320: 270c 933c 7e0c 153f 75fa 103f 62d9 0d3c
00000330: 7c5a e03e b5c2 943c 6f05 213f 1ca8 6f3b
00000340: aceb 643c 3241 483f c493 02bf e2b1 90bc
00000350: 3067 20bf 12bb 8fba 62e8 193f 4430 d53b
00000360: 15a2 853c da1f 423f 0032 013f 3697 4abd
00000370: 8b17 163e b737 8cbe afaa 3ebc aa55 42bf
00000380: 8438 123f c044 9ab6 158d 1cbf 65cc 81bb
00000390: 7037 27bf b243 193c 62a2 af3e 304f ab3b
000003a0: 7134 71bc 5bac 2fbf 03b3 133f 0eb3 293b
000003b0: 7ada 2abc d1dc 2dbf 5805 153f 200a 303c
000003c0: dc91 193f b6d0 523c 1044 e8be cacc 19be
000003d0: 0ee5 ff3e d5df 8c3c 347c 083f 6f8d 883c
000003e0: 4072 043f 531c 3a3c e279 6f3c 45fb 4a3f
000003f0: da53 2bbc 9bc0 33bf 51d1 16bf 6db1 8b3c
-0.62798774 -0.0016685972 -0.011403252 -0.69213134 0.6109041 0.009658894 0.30747065 0.30564576
0.4842246 0.013972482 -0.59077823 0.0074812146 0.5190562 0.004170049 0.0071407664 0.36655113
-0.6489677 0.0040965397 0.014213168 0.8035527 0.48961833 -0.05378939 0.5341426 0.00781686
0.5731479 0.014876473 -0.6714991 -0.0035208417 0.5255747 0.08071157 -0.6191552 0.0063888873
-0.593334 0.012536506 -0.56308615 0.0014396845 -0.66325456 -0.0056691654 -0.010675762 -0.68606013
0.56881803 0.008259873 0.43451652 -0.34175783 0.5523347 0.014844227 -0.5358238 0.004253698
-0.57517886 0.02437378 0.5535006 0.005306061 0.4267428 0.016681546 -0.5266366 -0.0070103584
0.5640366 0.007404741 -0.6405661 -0.0042174915 -0.0051543745 -0.5832493 0.014010039 0.67942446
-0.5819057 -0.007896903 -0.24806759 -0.24530332 0.5602542 -0.045077242 -0.0118082445 -0.70577836
0.5817686 0.010159888 -0.36598948 -0.19606146 -0.3913862 0.38238797 -0.016116627 -0.73357946
-0.6404037 -0.0058862236 -0.6354619 -0.0065363757 -0.5401154 0.0028332544 -0.40986568 -0.0019354937
-0.5928762 0.17274694 -0.48243728 -0.007997726 0.012680226 0.52177465 -0.6437906 0.0034033153
0.013921423 0.7516396 0.6502908 0.005195528 -0.10736633 -0.45936313 0.494693 -0.04874866
0.32477847 0.13007772 0.012029962 0.7273803 -0.45627233 -0.23290654 -0.65335155 -0.0052434737
-0.30370006 -0.3462948 0.51084083 0.011211759 0.5682363 0.0061123716 -0.2684289 0.20204312
-0.6100686 -0.0039620386 0.029783806 0.30885023 0.63720995 0.0027236533 0.5803464 0.011984812
-0.013143125 -0.73722625 -0.60479224 0.028480345 0.56969887 0.0036510592 0.581212 0.009119584
-0.01647549 -0.681458 -0.012658198 -0.7722861 0.51093554 0.009419193 0.51621187 0.0051422836
-0.5452193 -0.0053393305 0.01479141 0.6874478 0.45528683 0.007898589 -0.6878301 0.04257212
0.6224909 0.00523449 -0.57909703 0.0001293059 0.62567633 0.003489106 -0.009335206 -0.62786996
0.6350175 0.0030760174 -0.55931294 -0.00078566 0.014755625 0.72039515 0.48911852 -0.018701384
-0.009950646 -0.7293543 0.0075728395 0.6191306 0.25927588 0.37919468 0.2494073 0.026571082
0.015669143 0.70856184 -0.47043285 -0.3131358 0.5810637 0.015202389 -0.0097409785 -0.7221469
-0.4696139 -0.30821216 -0.011617418 -0.7255243 0.65484303 0.006366273 0.4797264 0.0057800724
-0.3524696 0.00045050023 0.56498796 0.0033957118 -0.36295465 -0.0007192977 0.5560409 0.010516602
0.01795013 0.58222187 0.5663217 0.008657785 0.43819034 0.01815925 0.62898916 0.0036568707
0.013972204 0.7822448 -0.5100672 -0.017662946 -0.6265745 -0.0010965785 0.60120213 0.006505998
0.016312638 0.7582985 0.5046692 -0.049460612 0.14657418 -0.27386257 -0.011637374 -0.75911963
0.57117486 -4.597561e-06 -0.61152774 -0.0039611333 -0.65318966 0.009354519 0.34303576 0.0052279457
-0.014721976 -0.6862237 0.57695025 0.0025894078 -0.010428065 -0.67915064 0.5821128 0.0107446015
0.5998819 0.012867143 -0.45364428 -0.15019527 0.49979442 0.017196575 0.5331452 0.016669003
0.5173683 0.011359292 0.0146164615 0.79289657 -0.0104570035 -0.7021577 -0.5891314 0.017052377

linear1.bias f4 [128]
00000000: 2efa bcb8 102d 87b5 9ec9 3939 36c6 ed36
00000010: 270f 3c38 4c9e a038 aeee ae38 1deb 8bb7
00000020: 9b2c f0b8 5f1b 75b8 2b7b bbb7 d4e1 8eb8
00000030: d4da 8038 aa23 a8b8 68ee 0ab8 36f0 40b8
00000040: 8c04 6d38 6050 5c38 e9d4 55b8 bed5 5438
00000050: c1b6 8a38 2ebc 96b6 6ff8 9438 3bd7 2538
00000060: e513 8438 6ccd 3b39 2bac 8038 bb33 8638
00000070: 3a73 94b8 9f88 fbb8 d9d8 0f38 daa2 9b38
00000080: f988 e0b8 60a5 7ab4 646b 10b8 1946 01b9
00000090: 7df6 2439 7cb5 ad36 e25b bfb6 a4ae d4b8
000000a0: 4bbc b338 9085 b1b7 618c 14b8 084b 06b7
000000b0: ce84 bab7 db92 14b8 5dc6 0737 93af cb37
000000c0: 66c4 5d38 5e67 5e38 9685 39b7 56b9 a036
000000d0: 4a47 cd36 b5ef b3b6 3e4c 7fb6 dae9 2038
000000e0: a03d da37 8c64 0ab8 dca3 2338 7850 7136
000000f0: 64f0 6c38 3cdd 8336 6472 5db8 b533 c2b7
00000100: 7cc2 4bb7 8cab 15b8 52a3 9038 47a7 a338
00000110: 963a 8038 4a7a 0a39 87e4 a638 fffe 75b8
00000120: 9c0c 1739 8b40 95b8 ae88 b236 600e 6737
00000130: 8220 cf38 ba36 9237 ca18 8637 f0c7 ccb6
00000140: 1a84 3c39 5818 2a37 c0c2 0d37 e8ae 1b36
00000150: b8c6 84b7 2ad9 ec36 36ac 8fb5 1eed 2cb6
00000160: 28b5 5ab8 c2dd 6b37 6ae7 0138 3e33 52b8
00000170: 2545 c138 80a5 42b3 d13c 3bb7 99b5 15b8
00000180: 6236 8fb7 0512 1e39 cc8d 1db7 7b90 1c38
00000190: 82b9 ca37 181b 82b7 01ac 33b8 0084 7934
000001a0: 87e9 9db7 a93a 95b8 5a44 a6b7 6d51 b538
000001b0: 3609 15b8 41f9 73b8 2e30 2cb6 5640 a138
000001c0: c87c 0737 3302 8eb8 f0c3 f6b6 e3f9 7cb7
000001d0: 9fbe 06b9 9b87 6537 db00 3e38 e9dc 6ab9
000001e0: f8af 0137 58eb b337 8b89 7e38 4284 0639
000001f0: f242 be37 ae75 0239 fd65 34b8 7880 a038
-9.011138e-05 -1.0071399e-06 0.00017718083 7.086225e-06 4.4836805e-05 7.6588796e-05 8.341424e-05 -1.6679574e-05
-0.000114524 -5.8438043e-05 -2.2349492e-05 -6.8131514e-05 6.1442755e-05 -8.017507e-05 -3.3123797e-05 -4.600008e-05
5.6509438e-05 5.2526942e-05 -5.0981445e-05 5.07438e-05 6.614393e-05 -4.4922554e-06 7.103464e-05 3.9539515e-05
6.297956e-05 0.00017910235 6.1355844e-05 6.3992535e-05 -7.0786526e-05 -0.0001199406 3.4295812e-05 7.4213094e-05
-0.000107066655 -2.3343227e-07 -3.443229e-05 -0.00012328512 0.00015732083 5.1769293e-06 -5.70294e-06 -0.00010141477
8.5704574e-05 -2.116224e-05 -3.5416688e-05 -8.004492e-06 -2.223477e-05 -3.542272e-05 8.092812e-06 2.4281244e-05
5.2873416e-05 5.3025193e-05 -1.1057962e-05 4.7899475e-06 6.1177752e-06 -5.3625213e-06 -3.804234e-06 3.8364764e-05
2.6016321e-05 -3.2995405e-05 3.9014834e-05 3.5958637e-06 5.6490666e-05 3.9298593e-06 -5.279704e-05 -2.315068e-05
-1.2145025e-05 -3.5684134e-05 6.896876e-05 7.8036035e-05 6.114428e-05 0.00013206262 7.958063e-05 -5.8650035e-05
0.0001440518 -7.116896e-05 5.320725e-06 1.377202e-05 9.876584e-05 1.743004e-05 1.5985588e-05 -6.1029496e-06
0.00017978289 1.0138458e-05 8.449599e-06 2.3198609e-06 -1.5828162e-05 7.0586293e-06 -1.070445e-06 -2.5768018e-06
-5.2143965e-05 1.40587235e-05 3.0971518e-05 -5.0115625e-05 9.215836e-05 -4.5319666e-08 -1.11602285e-05 -3.5693494e-05
-1.7072252e-05 0.00015074767 -9.390944e-06 3.7327856e-05 2.416666e-05 -1.5509824e-05 -4.2837117e-05 2.3237953e-07
-1.8824603e-05 -7.1158e-05 -1.982057e-05 8.645919e-05 -3.5532947e-05 -5.816785e-05 -2.5658042e-06 7.689062e-05
8.07568e-06 -6.771497e-05 -7.3541814e-06 -1.5078552e-05 -0.00012850248 1.3681037e-05 4.5300327e-05 -0.00022398274
7.72997e-06 2.1448053e-05 6.0686416e-05 0.00012828506 2.2680939e-05 0.00012441605 -4.301033e-05 7.653324e-05

linear2_mu.weight f4 [3, 128]
00000000: 7a6f 1ebd 648d 933f ba95 f53d 4957 64be
00000010: 7975 05be 3492 4fbd b7bb 0ebd 9586 cfbe
00000020: 9883 8ebc b49e aabf 27a3 803e 5be5 6b3c
00000030: dd75 91bd e00f b1ba 497c 10be 3c9a 8e3b
00000040: d2d7 05be ac55 b0bc 1b66 733d 9aeb 943f
00000050: d21c 613c 3fda b13e 7ec8 e4bd 5476 f3bc
00000060: f639 55be bc33 843d 1590 1fbd 7526 e03d
00000070: 15c9 2d3d 72bb bd3b 0108 5b3f 2925 86bf
00000080: 77af 223e 68c4 813e 1688 473e a091 983f
00000090: 7bb0 aa3c bfc4 653e d392 93be d159 a23f
000000a0: a681 40bb 2f35 bd3c e0c8 d73d 9878 02bd
000000b0: 6129 5fbe 01c0 4f3e 4b56 3dbf 2cd0 d5bd
000000c0: ff6c 9abf ae10 483e a4fc fe3e 5010 643e
000000d0: 8816 68be 715c 91bf dfd4 4d3e c9ba a43c
000000e0: e492 b53e f077 c7bd d05a 3b3d 75b4 23be
000000f0: e8c5 033d d413 97be aa54 303e 19f3 02bc
00000100: ea62 a13f 048c 03be 5987 823d 7daa e43d
00000110: 5c04 943f 3c03 ab3f a3e2 5bbc cb2a 813c
00000120: 4901 4b3e 55a9 8ebf 2daf e8bc 5ddc d4bd
00000130: d521 043e 7adc 593e ff2e 153d 832e 7a3f
00000140: 50db 463e c18a 273e b1df 93bf 563e 4b3e
00000150: f71b 9b3f 34d0 5abf 1c36 8abe 6b9f c7bd
00000160: 128d 92bf af29 733e 0bdd e9bd e9ff 9a3f
00000170: 9231 8d3e f66a 9d3f ccff c83d 3a5f a839
00000180: f411 37be 75ff 773d 2cbb e3bd 1496 0cbd
00000190: e3cf 54bf 9c79 de3d 1cac f4bd 032e 803e
000001a0: 8bf4 a4bf 6cfd 383e 4e34 313e 3d2c 583e
000001b0: 7ecb 9ebf 96fa 133e d8ce 663e 7e7b a73f
000001c0: cf15 7b3d 38fc b23c d00f 47bc d798 1fbe
000001d0: 8d1a 963f 7e73 bf3d 3f89 913f a85d 3dbd
000001e0: 63d8 bebd 4bac ce3d 7929 f6bd 8407 3abe
000001f0: 3ea3 04bd b921 aabf 4bcc 953f a0cb 90bd
00000200: 62d9 14bf 03b2 5abb 9a85 213f ea6d 253e
00000210: f8d6 1a3f 9547 02bf af63 283f 21ba dfbc
00000220: 2ee1 18bf f6ca b0bd 2c7f 593e 3452 193f
00000230: 9fbd 3e3f 017e 50bf 94a1 b83e 1410 38bf
00000240: 0033 06bf c80a 01bf d82c 46bf 4776 dabc
00000250: 5af1 273f d6b9 1d3e 007e 323f 1d0d 01bf
00000260: 83cd efbe 5b20 263f c122 013f a48a 14bf
00000270: 77c2 253f 2d91 4bbf 994f e53d d7df 883d
00000280: 9cce 23bf 3c33 16be b7f6 ad3e d92a 02bc
00000290: 3aaf 253f 66bb a0be a967 4dbe ffd3 d2bd
000002a0: 646d 41bf 11fb 31bf 0cf2 1bbf 0f02 aabe
000002b0: bc9a 74be f113 fbbe d4e8 52bd 18b4 11bf
000002c0: 3f81 5a3c 545e 333f d10b cebd 00ee 9b3e
000002d0: 8b61 883e 32da 7bbc 84cc b6be 3981 49bf
000002e0: 3e16 27be 1a01 203f 235b 2d3f 89fc f5bd
000002f0: 0a31 29bf 2a2c 1a3d 8227 1a3f 4611 293f
00000300: 802c 53bd d034 b3be da67 323f c48e 1e3f
00000310: 7963 cebd 505a fbbc caf9 183f fef8 243f
00000320: 8268 14bf 930f 5d3c 455a 0d3f c3e8 f3be
00000330: 4890 273f a6f9 2bbf b110 4e3f b972 4a3d
00000340: ff77 1b3f 6dc0 24bf 6bae 0abd 1a11 b13e
00000350: 5355 1d3d 4aba 8cbd caba 273e aba8 4c3e
00000360: 01fd a6bb e37e acbe f1eb 483f d485 a1ba
00000370: e46f bcbe 9be8 173d ffba 473f c0fb 0e3f
00000380: 1165 38be c65d 303f 8821 70be 9908 353f
00000390: aa8d cc3d 2a0a 0d3f 7077 f03e 773f 183f
000003a0: 30f7 9dbd 3440 02bf 332a 46bf 8f19 0f3f
000003b0: d254 9539 844c 8c3e 1f4b 3a3d 5f00 26bd
000003c0: 06b4 0d3f 71cc 36bf fd32 42bf d9ba 993e
000003d0: d732 0fbd 39f3 303f 15f9 12bd b53f 393f
000003e0: 4fd2 503f 7a19 abbe d854 1b3f d74e 353f
000003f0: 13a2 2a3f 77e9 7dbd 99dc 84bc 915a e4be
-0.03868053 1.1527524 0.11991449 -0.22298922 -0.13033094 -0.05067654 -0.034846988 -0.40532365
-0.017396733 -1.3329682 0.25124475 0.014397944 -0.07102559 -0.001350876 -0.14109911 0.0043518823
-0.1307061 -0.021525227 0.059423547 1.16344 0.013739781 0.3473682 -0.11171053 -0.02971951
-0.20822892 0.0645518 -0.038955767 0.10944835 0.042428095 0.0057901675 0.8555909 -1.048009
0.15887247 0.2534516 0.19485506 1.1919441 0.020836106 0.22438334 -0.28822955 1.268366
-0.0029374151 0.023096649 0.10536361 -0.03185329 -0.21793129 0.20288087 -0.739598 -0.10440096
-1.2064513 0.19537613 0.49802125 0.22271848 -0.22664845 -1.1356336 0.20100735 0.020108597
0.3546363 -0.09739673 0.045740902 -0.15986808 0.03217116 -0.29507315 0.17219797 -0.007992529
1.2608311 -0.1284638 0.06373472 0.111653306 1.156383 1.3360362 -0.013420734 0.015767476
0.19824709 -1.1145426 -0.028403843 -0.103935935 0.12903531 0.21275511 0.036421772 0.9772722
0.19419599 0.16361524 -1.155264 0.19847998 1.2117909 -0.8547394 -0.26994407 -0.097472034
-1.1449301 0.2374637 -0.11419114 1.2109348 0.27576882 1.2298267 0.098144144 0.00032114406
-0.17877942 0.060546357 -0.111196846 -0.034322813 -0.8312971 0.10863039 -0.1194689 0.25035104
-1.2887129 0.18065423 0.17305109 0.21110626 -1.2405851 0.1445106 0.22539842 1.3084562
0.061300095 0.021848783 -0.012149766 -0.15585648 1.1726853 0.093482 1.1370009 -0.046231896
-0.09318616 0.10091456 -0.12019629 -0.1816693 -0.032382242 -1.3291541 1.170297 -0.070700884
-0.581442 -0.0033370263 0.63094485 0.1615521 0.60484266 -0.50890476 0.65777105 -0.027310433
-0.59718597 -0.08632462 0.21239918 0.59891057 0.7450809 -0.81442267 0.36060774 -0.71899533
-0.5242157 -0.50407076 -0.77412176 -0.026667727 0.6560265 0.15402922 0.6972351 -0.50410634
-0.4683648 0.6489312 0.50443655 -0.5802405 0.64749855 -0.79518396 0.11196823 0.06683319
-0.63987136 -0.14667982 0.3397729 -0.007944786 0.647205 -0.31392974 -0.20059074 -0.10294341
-0.7555754 -0.6952372 -0.6091621 -0.33204696 -0.23887151 -0.49038652 -0.051491573 -0.56915426
0.013336479 0.7006581 -0.100608476 0.30455017 0.2663692 -0.015371846 -0.35702908 -0.78712803
-0.16317078 0.6250168 0.6771719 -0.12011058 -0.6609045 0.037639774 0.60216534 0.6604198
-0.05155611 -0.3500123 0.69689715 0.61936593 -0.10077567 -0.030682713 0.5975615 0.6444243
-0.57971966 0.013492483 0.55215865 -0.4763852 0.6545453 -0.6717781 0.8049422 0.049425814
0.60729975 -0.6435612 -0.033857744 0.3458336 0.03841145 -0.06871469 0.16379848 0.19986217
-0.0050960784 -0.33690557 0.7848502 -0.0012323209 -0.36804116 0.037087064 0.7801971 0.5585289
-0.18007304 0.68893087 -0.23450291 0.70716244 0.09987958 0.55093634 0.46966124 0.5947184
-0.07713163 -0.50879216 -0.7740814 0.55898374 0.0002848269 0.27402127 0.045481797 -0.040527698
0.5535282 -0.714057 -0.7585905 0.30025366 -0.034960594 0.6912113 -0.035882074 0.72362834
0.81570905 -0.33417875 0.60676336 0.70823425 0.66653556 -0.061990228 -0.01621847 -0.44600347

linear2_mu.bias f4 [3]
00000000: bb61 7cbd 22d5 bb3c b38f e53c
-0.06161664 0.022928778 0.028022623

bn1.weight f4 [128]
00000000: 3a31 9e3f 914b ab3f 6965 a03f dc49 123f
00000010: a0a5 7b3f 182a 933f 8a32 733f d8eb ea3e
00000020: f81e a33f 514c e73f 80a5 443f b240 783f
00000030: 8484 9b3f b48f b43f 755a 313f 5ec9 9a3f
00000040: dc23 a33f e6c9 813f 23a1 b43f 9f34 a53f
00000050: 49ef 8d3f c87a 433f d2f6 933f 1366 6e3f
00000060: 3e9d 8f3f 9bcc 873f 681c 363f 4541 863f
00000070: d648 8a3f b8ad a93f e276 803f 16d4 ab3f
00000080: 47e6 983f ca5e ea3e 2c5d 493f 64a2 b03f
00000090: bb34 903f eb50 4a3f faf8 3e3f e0d6 c33f
000000a0: ecaf a93f 3052 a43f 7ba1 7d3f bff7 133f
000000b0: 37ef 673f 78f4 813f 77ce 583f 643d b03f
000000c0: 3034 cd3f c494 b13f 487f 2f3f ec0e 403f
000000d0: 1742 1f3f d317 c33f c2d7 583f 3cfe ae3f
000000e0: 1af2 3f3f 8676 7b3f b304 8e3f 3b53 c03e
000000f0: 8cbc 993f c86b a23e ea69 af3f c912 933f
00000100: ceb3 c13f 3c1b 7e3f 2faa 8d3f 3576 923f
00000110: f42c ac3f a021 d13f d16e 713f c3f1 6e3f
00000120: e41f 903f bbba ab3f fb85 4a3f 7ce8 903f
00000130: f84a a43f 3351 993f 2842 a43f 50c4 903f
00000140: 8c7f ae3f 15ec 903f 3848 bd3f 1249 483f
00000150: 794c bb3f 32c4 933f ce90 0f3f 7ca4 c83e
00000160: a208 b73f b118 5a3f cf98 a03f f9e3 b53f
00000170: 79ec 7a3f edd9 bb3f 3049 b23f 14f2 503f
00000180: f499 1d3f 4180 8c3f e3db 0b3f a661 903f
00000190: 9792 893f d0f4 883f 7a4f 513f 1f05 ac3f
000001a0: 43c9 db3f 6c9e 843f 6c6c ad3f 5eaa 9e3f
000001b0: 6fd6 cf3f f617 2a3f 0bd6 983e 2ce0 c93f
000001c0: 1cd2 863f 2adb 9a3f 40b9 ab3f 8647 193f
000001d0: 1c76 ad3f a18b 8f3f 9a61 a33f ff48 993f
000001e0: b8c9 a73f 9f6a 233f 5f1d 843f 1c25 913f
000001f0: f775 813f 42fc e13f ea98 ae3f 36e8 8a3f
1.2358773 1.3382436 1.2530948 0.5714395 0.982996 1.1497221 0.9499899 0.4588306
1.2743826 1.8070165 0.7681503 0.9697372 1.2149816 1.4106355 0.6927865 1.2092702
1.2745318 1.013974 1.4111675 1.2906684 1.1088649 0.76359224 1.1559699 0.931245
1.1219862 1.0609316 0.71137094 1.0488669 1.0803478 1.325614 1.003628 1.3424098
1.1945275 0.45775443 0.78657794 1.3799558 1.1266092 0.7902972 0.7459866 1.529995
1.3256812 1.2837582 0.99074525 0.57799906 0.9059939 1.0152731 0.8469004 1.3768735
1.6031551 1.3873525 0.6855359 0.7502277 0.6221022 1.5241646 0.8470422 1.3671336
0.7497879 0.9822773 1.1095184 0.375635 1.2010665 0.31722856 1.3704197 1.1490108
1.5132997 0.99260306 1.1067561 1.1442324 1.3451219 1.6338387 0.9430972 0.9333765
1.1259732 1.3416361 0.7911069 1.1320949 1.2835379 1.1977905 1.2832689 1.130991
1.3632674 1.1322047 1.4787664 0.78236496 1.4632713 1.1544249 0.5608033 0.39187992
1.429951 0.85193926 1.2546633 1.4210197 0.9801708 1.4675881 1.3928585 0.8161938
0.6156304 1.097664 0.54632396 1.12798 1.0747861 1.0699711 0.81761897 1.3439063
1.7170795 1.0360847 1.3548713 1.2395742 1.6237315 0.6644281 0.29850802 1.5771537
1.053287 1.2098134 1.3415909 0.5987476 1.3551669 1.1214486 1.2764161 1.1975402
1.3108435 0.63834566 1.0321463 1.133945 1.0114125 1.7655108 1.3640416 1.0852115

bn1.bias f4 [128]
00000000: e4fb 633e 0986 903e bd4d 453e c30b c73d
00000010: c99a 593e e0f5 7f3e 3c72 113e 3bc4 d23c
00000020: 03ac 993e 8458 993e b78c 683e d878 053e
00000030: ae61 6c3e b4ac 743e e52c 833e 6f57 3d3e
00000040: b4d2 983e bd27 5e3e abe5 7d3e df81 763e
00000050: 3e8b 683e 7406 e03d 4a08 5f3e b72f 273e
00000060: e310 9d3e 1555 263e c218 343e 39b8 7d3e
00000070: 0a08 343e 98be 603e a5b4 8b3e 7234 523e
00000080: 9da9 593e e601 183d 7106 5a3e 208c 913e
00000090: 5b74 2d3e 9825 de3d e507 993d 64b2 8d3e
000000a0: 503c 713e 8bfa 543e 28ee 053e 7b4e ce3d
000000b0: b19d 843e 6a13 803e 30e1 a93d d7a0 9b3e
000000c0: 46f7 853e b445 643e 8f19 703e 5c22 4d3e
000000d0: 0377 2d3e 2a62 793e 142a f43d 327a 7b3e
000000e0: 237e 543e 1e28 2b3e f461 513e 5e9d e3bd
000000f0: 4b30 813e 816a 583d 60ef 873e db4c 483e
00000100: 91f0 9a3e b97a a13e e2c2 243e 7527 233e
00000110: 4516 713e 5bcf aa3e 01bb 293e 777c f13d
00000120: b8be 4d3e 3015 343e 5be0 133e d153 b93e
00000130: 86dc 663e a7fd 693e 3cbe 523e 3aaa 9d3e
00000140: c41f 823e 24b1 523e bd93 6e3e dde6 2e3e
00000150: 590e b33e 450a 5c3e 5c34 083e 5339 863d
00000160: cb42 643e a51a 213e 79da 633e e4d8 a23e
00000170: 8d42 353e 17bd 973e 0bfe 573e 0863 d43d
00000180: 4064 0e3e 9be4 383e 98ce d83d 0db2 5b3e
00000190: 096e 373e ece9 163e f899 363e cc77 6a3e
000001a0: cc1e 8b3e 19ce 983e 773e 7b3e c0a3 493e
000001b0: 078c 8e3e dc56 353e 5a01 2b3d 12dd 9c3e
000001c0: 6fda 833e 4795 483e 09de 5d3e 156f ec3d
000001d0: 37ec 733e dd32 183e cc13 743e 31e7 633e
000001e0: 895b 763e 497f 8b3d bb97 5a3e c884 683e
000001f0: f943 4e3e 40f7 8e3e 361d 923e 1718 9e3e
0.22264057 0.2822726 0.19267936 0.0971904 0.21250452 0.24996138 0.14203733 0.025728336
0.30014047 0.29950345 0.22709928 0.1303438 0.23084137 0.23894006 0.2562019 0.18490385
0.29848254 0.21694846 0.24794643 0.2407298 0.22709367 0.10938731 0.21780506 0.16326796
0.30676946 0.16243394 0.1758757 0.24777307 0.17581192 0.21947706 0.27286258 0.20527819
0.21256109 0.037111185 0.2129152 0.2842722 0.16938917 0.10847014 0.07472209 0.27675164
0.23558164 0.207987 0.1307913 0.10073563 0.2590156 0.25014812 0.08294904 0.3039615
0.26165217 0.22292215 0.2344725 0.20032638 0.1693993 0.24353853 0.11922088 0.24558333
0.20751242 0.16714522 0.20447522 -0.11114 0.25232157 0.052835945 0.26549816 0.19560568
0.30261663 0.31538942 0.16089967 0.1593302 0.23543651 0.33361325 0.16575243 0.11791318
0.20092285 0.17586207 0.14441054 0.3619676 0.2254506 0.22850667 0.20580381 0.30793935
0.2541486 0.20575386 0.23298545 0.17080255 0.34971884 0.21488293 0.13301224 0.065539025
0.22291104 0.1573282 0.2225131 0.318061 0.17701168 0.29636452 0.21093003 0.10370451
0.1390543 0.18055956 0.1058628 0.2145464 0.17913069 0.14737672 0.17832172 0.22897261
0.27171934 0.2984474 0.24535547 0.19691372 0.27841207 0.17708915 0.041749336 0.30637413
0.2575259 0.19588195 0.21666731 0.11544625 0.23820578 0.14863153 0.23835677 0.22256161
0.24058355 0.06811387 0.21346943 0.22706902 0.20143117 0.27923012 0.2853791 0.30877754

bn1.running_mean f4 [128]
00000000: a23e d5bc 5d63 76bc dfb2 d13c e0a2 9c3c
00000010: 71a8 a63c 4969 c6bc dce4 b03c 7644 033c
00000020: b6a4 dabc 8f4a 8f3c fb3b 9c3c 6f4f b63c
00000030: 06b9 c43c 7416 e4bc d0c6 bf3c 53fb cfbc
00000040: 54b7 c5bc db52 bebc e80b e1bc 33b1 73bc
00000050: 614e c23c fadc 2f3c 0d6e bd3c 5e67 b4bc
00000060: 7941 bebc a415 bc3c fc74 933c 6e33 b3bc
00000070: 3222 c03c 371e dabc 51c7 4cbc c527 743c
00000080: 262e c6bc 9fd5 7cbc 5b64 b53c 97bb 7bbc
00000090: 05ec c63c 79a3 9dbc b437 04bc 744d 84bc
000000a0: 4797 d9bc 8ba4 d7bc 2d31 b6bc 79ed 8abc
000000b0: cd98 aabc 4e20 a5bc 4e7e 3c3c 9a34 d9bc
000000c0: 9ed9 863c 07d2 dd3c 2ff6 67bc 04a2 9e3c
000000d0: e14c 843c 83da 813c 12a4 c2bc 61a7 ddbc
000000e0: 9fb5 a2bc 1b05 af3c 3a94 c13c ef15 dfbb
000000f0: 0c3c cfbc 5814 fd3b 0c06 d83c f542 c63c
00000100: 3f59 83bc 03bd c7bc 99a3 c13c bb73 c63c
00000110: 3857 76bc 4547 89bc bb9d ae3c 8c62 af3c
00000120: 1b02 b9bc f287 773c aa86 9b3c 2a18 e1bc
00000130: 272c d33c 7fde c3bc e371 d43c 7cbe 5fbc
00000140: c75b d73c 937d bdbc cfce 813c 4dcd a13c
00000150: dc06 81bc 9065 5b3c d924 993c 36cd 313c
00000160: cb6a 7f3c 1539 d5bc a65e c73c f606 80bc
00000170: bd0c d4bc aa51 81bc a8a6 de3c b095 a33c
00000180: d230 6ebc 872f c03c f9d3 75bc 00ec bd3c
00000190: be6a 553c 5d73 c03c f837 973c 0dc4 d43c
000001a0: 7488 8b3c 314f afbc 9b91 d4bc 30cb cc3c
000001b0: da9a 883c ddf4 a13c ddf8 9139 892e 87bc
000001c0: dcf6 c03c ebc0 cfbc 8a50 dbbc db2f 693c
000001d0: 39b0 77bc 30ca c33c e5d1 71bc d99c c63c
000001e0: bac2 cc3c 3b82 b3bc 8d0b ac3c fd78 b73c
000001f0: 63dd b03c d1b9 8d3c 8f37 79bc 66f0 c3bc
-0.026030842 -0.0150383385 0.025597988 0.019120634 0.020343991 -0.024220126 0.021593504 0.008011928
-0.026689868 0.017491607 0.01907157 0.022254674 0.024014007 -0.027842738 0.02341023 -0.025388395
-0.02413527 -0.023232868 -0.027471498 -0.014873791 0.023719015 0.010733837 0.023123765 -0.022021946
-0.02322458 0.022959538 0.018000118 -0.02187511 0.023453806 -0.026625736 -0.012498693 0.01490206
-0.024191927 -0.015431791 0.02214258 -0.015364549 0.024282465 -0.019242989 -0.008069921 -0.016150214
-0.026561392 -0.026323577 -0.022240246 -0.016958939 -0.020824814 -0.020157006 0.011504723 -0.02651434
0.01646119 0.027077688 -0.014157816 0.019364364 0.01614994 0.015851265 -0.023759875 -0.027057352
-0.019861994 0.02136474 0.02363025 -0.0068080346 -0.025297187 0.0077233724 0.02637007 0.02420185
-0.016033767 -0.02438212 0.02363758 0.024225106 -0.015035443 -0.016757617 0.021315446 0.021409295
-0.022584012 0.0151080955 0.018985111 -0.027477343 0.02577789 -0.023909805 0.025933212 -0.013656255
0.02628888 -0.023131168 0.015845684 0.019751215 -0.015750341 0.013390914 0.018694328 0.010852149
0.015589426 -0.026028195 0.024337124 -0.01562832 -0.02588498 -0.01578601 0.027179077 0.019968837
-0.014538007 0.023460163 -0.0150041515 0.023183823 0.013025938 0.02349251 0.018459305 0.02597239
0.01703284 -0.021400066 -0.025948336 0.024999231 0.016675401 0.01977008 0.00027841973 -0.016501682
0.023555212 -0.025360545 -0.026771802 0.014232601 -0.015117698 0.023900121 -0.014759515 0.024244713
0.024995197 -0.021912685 0.021001602 0.022396559 0.02158994 0.017300518 -0.015211 -0.023918342

bn1.running_var f4 [128]
00000000: 8d3c 4b3e 2f51 7c3e 1da3 403e b7ab bc3d
00000010: b53f f23d 69c2 333e 97d6 0a3e b50c 8d3d
00000020: e9e3 583e a322 aa3e 1bf4 fa3d 7e37 133e
00000030: 48ac 293e 0563 683e 720a 113e 0232 453e
00000040: f450 353e 424c 233e 22d6 623e f2eb 773e
00000050: 64f2 263e 99e3 243e fb96 1d3e 7ac5 133e
00000060: d7ab 2a3e 3ff4 1d3e 0d54 bc3d 200f 0f3e
00000070: 9d1f 243e 0e7e 533e 481b 333e 9f1f 733e
00000080: 5bb3 2e3e a56f 743d 3a19 233e 4c31 833e
00000090: 59b8 2e3e 14d0 ad3d 0152 223e 73c2 8d3e
000000a0: a67b 533e 9c49 503e 5812 163e 8f26 ad3d
000000b0: 9af0 483e 7a2b f03d 1931 0f3e aa73 553e
000000c0: b2d6 943e 280d 5a3e 59d2 e73d ad64 ff3d
000000d0: 6395 763d 0861 8b3e d750 043e 1715 5c3e
000000e0: a894 d53d 3abc 063e 2582 263e 06cc 733d
000000f0: 6edb 3f3e b9f5 483d 3545 513e 3eea 2d3e
00000100: 742b 8f3e b427 3d3e 743f 273e c85a 2e3e
00000110: b99a 743e 5122 9d3e 1bbe 063e 575e 093e
00000120: 0046 193e d2e7 783e 5ae3 d53d 0829 753e
00000130: 87d0 473e 2ba5 2c3e 25b8 493e b28f 4f3e
00000140: a8d8 4f3e 1915 213e beb1 883e fb80 f63d
00000150: 3a1f 8c3e cae1 493e e2b1 d43d 6dfc 013d
00000160: 7d39 843e 5057 203e 5863 2e3e 0a5d 893e
00000170: ea66 1e3e 84a5 8a3e 4026 5d3e e757 ed3d
00000180: f4f4 7f3d ad7a 243e a6b8 873d 4595 1f3e
00000190: 4567 323e 398a 253e 44a0 c63d b4f1 4b3e
000001a0: 3d38 a13e 0077 063e 1a2e 4a3e 7f72 3a3e
000001b0: c379 973e 97e0 043e c789 523d 7ed0 973e
000001c0: be06 283e 53c1 403e 3178 5b3e b7a6 723d
000001d0: d007 783e e67c 2b3e 96f2 723e d0e8 2e3e
000001e0: a8c9 393e e469 e83d 381d 013e 51de 123e
000001f0: 2f30 0a3e 9ba2 a53e 9ad9 813e 2ef1 323e
0.19847317 0.24640344 0.18812223 0.092124395 0.118285574 0.1755463 0.13558422 0.06887189
0.21180691 0.3322955 0.12253591 0.14376637 0.16569626 0.22694023 0.14164141 0.19257358
0.17706662 0.15947059 0.22151998 0.242111 0.16303402 0.16102447 0.15389626 0.144308
0.16667114 0.15425204 0.09195719 0.13970613 0.16027685 0.20653555 0.17490876 0.23742531
0.17060606 0.059676785 0.15927592 0.25623548 0.1706251 0.084869534 0.15851595 0.27687415
0.20652637 0.2034058 0.14655435 0.0845462 0.19623032 0.117270425 0.13983573 0.20844904
0.2907005 0.21294081 0.113194175 0.12470374 0.06020106 0.27222466 0.12921463 0.2149242
0.104287446 0.1315774 0.16260584 0.059520744 0.1873605 0.049062464 0.20436557 0.16983888
0.2796284 0.18472177 0.16332799 0.17026818 0.23887147 0.30690244 0.13158457 0.13414894
0.14968109 0.24307182 0.104437545 0.23941433 0.1951314 0.16859882 0.19699152 0.20269659
0.20297492 0.15730704 0.26698107 0.1203632 0.27367574 0.19715038 0.10385491 0.031734873
0.2582511 0.15658307 0.17030084 0.26828796 0.15468946 0.27079403 0.21596622 0.11589032
0.062489465 0.16062422 0.06627016 0.15584286 0.17422207 0.16166009 0.09698537 0.19916421
0.3148822 0.13131332 0.19744149 0.1820774 0.29585084 0.12976299 0.051400926 0.29651254
0.16408822 0.18823747 0.21432568 0.059241023 0.2422173 0.16746864 0.23725352 0.17080998
0.18143332 0.11348322 0.12608802 0.1434262 0.13494943 0.3235062 0.2536133 0.17474815
