simulations/pythoncode/vae_estimate/results/VAEmnist-q-2-batch_size-64.pt (torch, 7698 bytes, 8 tensors)

e.linear1.weight f4 [32, 3]
0	0x3e02b898	0.1276573
1	0xbe4efd83	-0.20213895
2	0xbe95a301	-0.29225925
3	0x3e6b75ab	0.22994106
4	0xbe7e653a	-0.24843302
5	0xbd5343c4	-0.0515783
6	0xbe142769	-0.14468159
7	0xbed77e4e	-0.4208855
8	0x3e04641d	0.12928815
9	0x3d9d1187	0.07669359
10	0xbe960f00	-0.2930832
11	0x3c549a7c	0.012976285
12	0x3e3a1d4c	0.18175238
13	0x3e51397b	0.20432083
14	0xbe5ff120	-0.21869326
15	0xa3153810	-8.089178e-18
16	0x170897fd	4.4135806e-25
17	0xa1572710	-7.289653e-19
18	0xbee3cefd	-0.44493857
19	0xbe0aa241	-0.13538457
20	0xbe3112dd	-0.17292352
21	0xbe51f1a9	-0.20502342
22	0xbed8094b	-0.4219459
23	0x3e145c60	0.14488363
24	0xbe46c63e	-0.19411561
25	0x3e02dc41	0.12779333
26	0xbeca0c5a	-0.39462548
27	0x3eb2cd2b	0.34922156
28	0xbebda7d4	-0.37042105
29	0xbee2e79c	-0.4431733
30	0xbf14b72f	-0.58092016
31	0xbd21c20c	-0.0394917
32	0x3ec940bd	0.39307204
33	0x3f0610cd	0.52369386
34	0x3e658608	0.2241441
35	0x3e38ef9e	0.18060157
36	0x3e9fae49	0.31187657
37	0xbb63f9d1	-0.0034786353
38	0xbc4b41b7	-0.012405804
39	0x3ebfdc5c	0.37472808
40	0xbeb26ab8	-0.34847045
41	0xbebb6666	-0.3660156
42	0x3ec9926a	0.39369518
43	0xbef418dd	-0.4767522
44	0xbef07233	-0.46962127
45	0x3c0cd45a	0.00859555
46	0x3e683885	0.2267781
47	0x3e238c57	0.15971504
48	0x3eb8e120	0.36109257
49	0xbe8ae25c	-0.27125823
50	0x3d7d0a54	0.061777428
51	0xbe83b74b	-0.2572578
52	0x3e66dc0a	0.22544876
53	0x3e879cc9	0.26486805
54	0x3f09e08a	0.53858244
55	0xbe3d7301	-0.18500902
56	0xbdd2edae	-0.1029924
57	0xbf0644e3	-0.5244886
58	0xbe3739ff	-0.17893218
59	0xbe6ac2ba	-0.22925845
60	0xbeabfdc5	-0.33592048
61	0x3e085c3a	0.13316432
62	0xbe245b25	-0.16050394
63	0xbe3b8de4	-0.18315846
64	0xbec678a6	-0.38763922
65	0x3e438b5b	0.19096129
66	0x3f13878f	0.5762872
67	0x3d467020	0.048446774
68	0x3e299a32	0.16562727
69	0xbe843254	-0.25819647
70	0x3e3428e2	0.1759372
71	0x3d03d7d9	0.03218827
72	0xb7855244	-1.5893143e-05
73	0x38ec992e	0.00011281889
74	0xb6417614	-2.8827972e-06
75	0x3ea8a3ee	0.32937568
76	0x3d8005c3	0.06251099
77	0xbd2f1017	-0.042739954
78	0x37cac8cf	2.4173785e-05
79	0x36a9c8e9	5.0599815e-06
80	0x3669835b	3.4796165e-06
81	0x3e3906f3	0.18069057
82	0x3ed0a658	0.4075191
83	0x3ecef6e1	0.4042273
84	0x3e812190	0.2522092
85	0xbe556041	-0.20837499
86	0xbe517dbc	-0.2045812
87	0xbc631ca4	-0.013861809
88	0xbbe8a30b	-0.0070995144
89	0xbb9f5c77	-0.0048633176
90	0x3e93bff7	0.28857395
91	0xbe370fbb	-0.17877094
92	0x3c35cc47	0.011096067
93	0x017b1c68	4.61218e-38
94	0x8158bdae	-3.9809023e-38
95	0x18dc4465	5.6937728e-24

e.linear1.bias f4 [32]
0	0x3d164e9f	0.036696073
1	0xbec83930	-0.3910613
2	0xbe49eaa0	-0.19718409
3	0xbe69c6ef	-0.22829793
4	0x3ef14ea2	0.47130305
5	0xae5177ec	-4.762761e-11
6	0x3ddfc99c	0.10927126
7	0xbe7c7a6a	-0.24656072
8	0xbe2f38b5	-0.17111476
9	0x3eadd41c	0.3395089
10	0x3f0c0683	0.54697436
11	0x3e2ff1d2	0.17182091
12	0x3eb376c4	0.35051548
13	0xbedb7612	-0.42863518
14	0xbdfca3f6	-0.123359606
15	0xbe3a7fdd	-0.18212838
16	0xbe38ba04	-0.1803971
17	0xbe913b6a	-0.28365642
18	0x3e061da6	0.13097247
19	0x3e27bdb4	0.1638096
20	0x3eacb376	0.33730668
21	0x3e1e09bd	0.15433402
22	0xbedae7a9	-0.42754868
23	0x3e590810	0.21194482
24	0xba81df2b	-0.0009908428
25	0x3e84f876	0.2597081
26	0xba05c9a3	-0.00051035936
27	0xbee8c58a	-0.4546321
28	0xbe893811	-0.26800588
29	0xbd35b587	-0.04436257
30	0x3ea17fdd	0.31542864
31	0xa276efc2	-3.3466144e-18

e.linear2.weight f4 [1, 32]
0	0xbdffa148	-0.12481934
1	0x3d0f32db	0.03496061
2	0xbe8dd851	-0.277041
3	0xbb46c178	-0.0030327719
4	0x3d56bcfc	0.052426323
5	0xa810a4ec	-8.0293675e-15
6	0xbdb19b0e	-0.086721525
7	0xbe9cfa46	-0.30659693
8	0xbe87453e	-0.26420015
9	0xbe71c143	-0.2360888
10	0x3e300749	0.17190279
11	0x3e39d600	0.18148041
12	0xbe04ef2d	-0.12981863
13	0x3ea16ebf	0.31529805
14	0xbc5c6468	-0.013451673
15	0xbc634f3c	-0.013873871
16	0xbd8e6d57	-0.06954449
17	0xbe8087da	-0.25103647
18	0xbe259511	-0.16170146
19	0xbde34b6b	-0.11098369
20	0x3e26925f	0.16266774
21	0x3dbb69ac	0.09151015
22	0xbe49315f	-0.1964774
23	0x3d7c3400	0.06157303
24	0xb9b0c7e6	-0.00033718272
25	0xbcce05c4	-0.025149234
26	0xb901c54c	-0.00012375897
27	0xbe3a5cf6	-0.18199524
28	0x3e5b5a3d	0.21421142
29	0xbbbf5625	-0.0058391267
30	0xbddaed91	-0.106898434
31	0x80fce440	-2.3224426e-38

e.linear3.weight f4 [1, 32]
0	0xbd4568de	-0.048195712
1	0x3d2cfa15	0.042230684
2	0x3d773016	0.060348593
3	0xbd037146	-0.032090448
4	0xbde41b31	-0.11137999
5	0x122fa966	5.5429063e-28
6	0x38e1e360	0.00010771188
7	0xbd18ddc8	-0.037320882
8	0x3db2884a	0.08717401
9	0x3d0aa68c	0.033850238
10	0xbe55ee6e	-0.20891735
11	0x3d6e9c64	0.058254614
12	0xbd4b1405	-0.04957964
13	0x3d596f48	0.05308464
14	0xbe528f58	-0.20562494
15	0xbd677d33	-0.056515884
16	0xbd208103	-0.039185535
17	0xbd84fad4	-0.06493154
18	0x3bf7b7a0	0.0075597316
19	0x3d2c4b7d	0.04206418
20	0xbd15ca67	-0.03656998
21	0x3ccea329	0.025224285
22	0xbddfd143	-0.109285854
23	0xbdb39ec4	-0.087705165
24	0xb9207e4c	-0.00015305838
25	0xbdad148a	-0.08451183
26	0x38badf7c	8.910798e-05
27	0x3d408262	0.046999343
28	0x3d6fea04	0.058572784
29	0xbbca88bc	-0.006180851
30	0xbe0e9cd8	-0.13927019
31	0x8056c454	-7.968282e-39

g.linear1.weight f4 [128, 1]
0	0xbed6c338	-0.41945815
1	0x80009c68	-5.6108e-41
2	0xbe85e1bb	-0.2614878
3	0x3ee0c0f9	0.43897226
4	0x3f741e6b	0.95358914
5	0x3ed4ab08	0.41536736
6	0x01b5c150	6.676629e-38
7	0xbdbbe51e	-0.0917456
8	0xbf50256f	-0.8130712
9	0x818d4087	-5.188781e-38
10	0xbf74a1bc	-0.9555929
11	0xbf1cc8e4	-0.61244035
12	0x3f1a497b	0.6026837
13	0x3ef48826	0.47760123
14	0xbea688fe	-0.32526392
15	0xbf7059e4	-0.9388716
16	0xbe354166	-0.17700729
17	0x3f6850df	0.907484
18	0xbebbd1a3	-0.36683378
19	0x019e9a36	5.8261315e-38
20	0xb8a85dbc	-8.028324e-05
21	0xbf68d02d	-0.9094265
22	0x3f3e7b64	0.7440703
23	0xbed8d987	-0.4235346
24	0xbed4f67f	-0.41594312
25	0xbf829ccf	-1.0204104
26	0xbe6b23dd	-0.229629
27	0x00e6fac7	2.1212126e-38
28	0xbf698a48	-0.91226625
29	0x3f62cc9e	0.8859347
30	0x00358b5e	4.917277e-39
31	0x8077df80	-1.1008601e-38
32	0x01b3ce1d	6.6049973e-38
33	0x3f180a24	0.59390473
34	0x3f8b6097	1.0888852
35	0x3f69b498	0.9129119
36	0xbf904232	-1.1270201
37	0x3ea0cbc2	0.31405455
38	0xbf5faa73	-0.8736946
39	0x3deada7b	0.11467453
40	0xbe2a552c	-0.16634053
41	0x8181e83f	-4.7720373e-38
42	0x002eb61c	4.289761e-39
43	0x3eb933e0	0.3617239
44	0xbf298bbf	-0.6622886
45	0x01310b9e	3.25181e-38
46	0x3f2e623e	0.68118656
47	0x80e4d99c	-2.1016557e-38
48	0x3f637149	0.88844734
49	0x00f8b4d4	2.2840072e-38
50	0x3f27ac4e	0.6549729
51	0xbf15ccb1	-0.5851546
52	0x3e5c1f16	0.21496233
53	0x3f6f8d97	0.93575424
54	0xbe772aa7	-0.24137364
55	0x2132ffed	6.064746e-19
56	0xbf5d5e55	-0.86472064
57	0xbf144aa2	-0.5792638
58	0x3f04d8e9	0.5189348
59	0x3f5fa77e	0.8736495
60	0xbf028b31	-0.5099364
61	0xbf509148	-0.8147168
62	0x89572e2e	-2.5901397e-33
63	0xbea9cb54	-0.3316294
64	0x01968bc8	5.5301874e-38
65	0x3e86a07d	0.26294318
66	0x3f374a86	0.7159809
67	0xbeceb551	-0.40372708
68	0x3ee54df7	0.44786045
69	0x3e963a7c	0.29341495
70	0xbec8d690	-0.39226198
71	0xbea89343	-0.32924852
72	0x3f4e24ae	0.8052472
73	0x3f0c7ef2	0.54881203
74	0x3f5e37fb	0.8680417
75	0x3f6697c1	0.9007531
76	0x811194c4	-2.6739028e-38
77	0x3f2c4735	0.67296153
78	0x81ac9b6d	-6.3405846e-38
79	0xbf009e58	-0.50241613
80	0x3f5d603a	0.86474955
81	0x3e86e15f	0.2634382
82	0xbf4e6ba6	-0.8063301
83	0x3c85bf9f	0.016326724
84	0x3ef9437e	0.48684305
85	0x3f11fbfb	0.57025117
86	0x3eb46e61	0.35240462
87	0x3f6c7443	0.923649
88	0xbf848060	-1.0351677
89	0xbe67b88f	-0.22628997
90	0x3ee7e30b	0.45290408
91	0xa3229554	-8.813659e-18
92	0x3f471fe7	0.77783054
93	0xbf342913	-0.70375174
94	0xbf2e0162	-0.6797086
95	0x3f5b5d3b	0.85689133
96	0xbe935d1a	-0.28781968
97	0xbe42ef16	-0.19036517
98	0xbf7cb6d4	-0.98716474
99	0x3f7f25e6	0.99667203
100	0x3ee2a343	0.44265184
101	0x81342bd6	-3.309223e-38
102	0x00bf8ad4	1.7590382e-38
103	0xbf7c568b	-0.98569554
104	0x80770c2a	-1.0932788e-38
105	0x0c978321	2.3344154e-31
106	0x3f09f75c	0.53893065
107	0x3f7157d5	0.94274646
108	0x3f8a0625	1.0783125
109	0xbe4e0fd1	-0.20123221
110	0x3f162f87	0.5866627
111	0xbf6488cb	-0.8927123
112	0xbf51acdf	-0.81904405
113	0xbf595f7b	-0.84911317
114	0x804409e8	-6.248367e-39
115	0x3f5b4ce8	0.85664225
116	0xbf4ba896	-0.79554117
117	0xbeb90415	-0.36135927
118	0xbf4dd0cc	-0.80396724
119	0x3f5882c7	0.8457455
120	0x0007ea72	7.26952e-40
121	0x3f77d172	0.96803963
122	0x3f7293f6	0.9475702
123	0x3f0d763b	0.5525853
124	0xbf77befa	-0.9677578
125	0xbf7ab366	-0.9792999
126	0xbf8b97bc	-1.0905681
127	0xbf409f38	-0.7524295

g.linear1.bias f4 [128]
0	0x3d90651b	0.07050534
1	0x8038f32d	-5.230023e-39
2	0x3ea3410c	0.31885564
3	0x3ec8f90d	0.3925251
4	0x3ead36d4	0.33830893
5	0x3f1c4dc5	0.61056167
6	0x811aa41a	-2.840307e-38
7	0x3dfad2bb	0.12247225
8	0x3db9f3a0	0.09079671
9	0x815a63df	-4.011193e-38
10	0x3e054300	0.1301384
11	0x3e939844	0.28827107
12	0x3e361227	0.17780362
13	0x3ecdbf2d	0.40184918
14	0x3e5e903f	0.21734713
15	0x3e507fd2	0.2036126
16	0x3e2e2505	0.1700631
17	0x3e8c9e35	0.27464452
18	0x3ef8775b	0.4852856
19	0x819f4d8e	-5.851866e-38
20	0xbb8f27da	-0.0043687643
21	0x3defa57d	0.11701486
22	0x3e84f31f	0.25966737
23	0x3deeb7b5	0.11656133
24	0x3ec56d36	0.38559884
25	0x3e0bd4ef	0.13655446
26	0x3ea18931	0.3154998
27	0x81268399	-3.0583801e-38
28	0x3dfc8085	0.12329201
29	0x3e80c4b4	0.25150073
30	0x80894a48	-1.260811e-38
31	0x80f70fd2	-2.2689043e-38
32	0x81153e6c	-2.7411763e-38
33	0x3eb2a862	0.3489409
34	0x3e9030c4	0.28162205
35	0x3ea3f7df	0.32025048
36	0x3e28d51a	0.16487542
37	0x3deefb78	0.116690576
38	0x3dceaaab	0.10091146
39	0x3d979e41	0.074032314
40	0x3e7bfb6b	0.24607627
41	0x819dbcb8	-5.794349e-38
42	0x81564c11	-3.9360167e-38
43	0x3ee3f137	0.4451997
44	0x3ea65bea	0.32492
45	0x8111288e	-2.666139e-38
46	0x3e485aba	0.1956586
47	0x8142c6e3	-3.5774867e-38
48	0x3ebb8b85	0.36629882
49	0x810c3731	-2.5753537e-38
50	0x3e9c7225	0.30555835
51	0x3d4e5875	0.050377328
52	0x3e816ea2	0.2527972
53	0x3e8a5161	0.27015212
54	0x3e454965	0.19266279
55	0xb95cdc21	-0.0002106284
56	0x3df2303f	0.118256085
57	0x3e4cabd1	0.19987418
58	0x3ef0f8a6	0.47064704
59	0x3e97c5fc	0.29643238
60	0x3ed223f8	0.41043067
61	0x3e6b1bef	0.22959875
62	0xb5e93f76	-1.7378322e-06
63	0x3e7129f4	0.2355116
64	0x8267d3ae	-1.7031949e-37
65	0x3e50f5cf	0.20406269
66	0x3e859b6c	0.2609514
67	0x3c30f66b	0.010800938
68	0x3f051ac6	0.5199398
69	0x3eabbf6b	0.33544478
70	0x3ec3aa50	0.38215876
71	0x3e33593d	0.1751451
72	0x3e668321	0.22510959
73	0x3e9eea6f	0.31038234
74	0x3e84cbbd	0.2593669
75	0x3ec621af	0.38697574
76	0xb41552ff	-1.39069e-07
77	0x3e87ec2b	0.2654737
78	0x81b3afae	-6.6006303e-38
79	0x3e88a256	0.26686352
80	0x3e8e76d1	0.27825025
81	0x3dd761ec	0.10516724
82	0x3e006c1c	0.1254124
83	0x3c8729e0	0.01649946
84	0x3ef0165a	0.46892053
85	0x3f0213ab	0.5081126
86	0x3dffa4a7	0.12482577
87	0x3e9304e7	0.28714678
88	0x3e24fb5a	0.16111508
89	0x3e88ae46	0.2669546
90	0x3e6248f9	0.2209815
91	0xb9e3a1ec	-0.00043417455
92	0x3e72ea20	0.23722124
93	0x3e37b47a	0.1793994
94	0x3e8093c4	0.25112736
95	0x3e69e1c0	0.22840023
96	0xba893726	-0.0010468706
97	0x3eabbf4b	0.33544382
98	0x3e2f4dbe	0.171195
99	0x3e997b25	0.29976764
100	0x3f0db988	0.55361223
101	0xb1c8071e	-5.821575e-09
102	0x81ae95e8	-6.413261e-38
103	0x3e4819ba	0.19541064
104	0x80b25bb3	-1.6379614e-38
105	0xb9201331	-0.00015265938
106	0x3e6df741	0.23238851
107	0x3e828d27	0.25498316
108	0x3e905065	0.28186336
109	0xbb5b1876	-0.0033431328
110	0x3ee85000	0.45373535
111	0x3de7b72b	0.113142334
112	0x3dc0f474	0.09421626
113	0x3e6ff708	0.23434079
114	0x80b5960f	-1.6676056e-38
115	0x3e85ccb0	0.26132727
116	0x3e0c9bfd	0.1373138
117	0x3ed6bb90	0.41939974
118	0x3e59301a	0.21209756
119	0x3e6c1b90	0.2305739
120	0x803159e6	-4.532189e-39
121	0x3e8736d4	0.26409018
122	0x3e994ada	0.2993992
123	0x3ebd43fd	0.36965933
124	0x3e4c2f01	0.19939806
125	0x3e35c17e	0.17749593
126	0x3e24c165	0.16089399
127	0x3e737f11	0.2377894

g.linear2_mu.weight f4 [3, 128]
0	0x3e30ff5a	0.17284909
1	0x811e9eef	-2.9134046e-38
2	0x3dde76f6	0.10862534
3	0xbe7e5ef1	-0.24840905
4	0xbf0a2598	-0.53963614
5	0xbe979ebf	-0.296133
6	0x00451712	6.344925e-39
7	0xbc4e69e4	-0.0125984885
8	0x3ed5cee6	0.41759413
9	0x00c8241d	1.8380054e-38
10	0x3ef42f4d	0.47692338
11	0x3e60326b	0.21894233
12	0xbed14aa8	-0.4087727
13	0xbe84b2a8	-0.25917554
14	0x3d8a729a	0.0676014
15	0x3ebf3711	0.373467
16	0x3d2f876a	0.04285375
17	0xbf105d29	-0.5639215
18	0x3d76232e	0.060092144
19	0x818fe182	-5.285349e-38
20	0x3c136a52	0.008997517
21	0x3ee52793	0.44756755
22	0xbede541b	-0.43423542
23	0x3e37b0e1	0.17938568
24	0x3e14a45d	0.14515825
25	0x3ef8bf85	0.48583618
26	0x3d337479	0.04381225
27	0x80197809	-2.338948e-39
28	0x3ecba618	0.39775157
29	0xbf0c8b5a	-0.54900134
30	0x804f89f3	-7.304491e-39
31	0x01ac269a	6.323821e-38
32	0x005c455d	8.473749e-39
33	0xbeac12e6	-0.33608168
34	0xbf242740	-0.6412239
35	0xbf0367b4	-0.51330113
36	0x3f0c28ed	0.5474995
37	0xbe6bedfd	-0.23040004
38	0x3eda0b94	0.42586958
39	0xbda8c5da	-0.08240862
40	0x3dc39616	0.09550111
41	0x80517b03	-7.482803e-39
42	0x01a3d6a2	6.0184726e-38
43	0xbe27d2de	-0.16389033
44	0x3e8b9a6b	0.2726625
45	0x8117ee48	-2.7905278e-38
46	0xbee11dbd	-0.43968
47	0x807cdeb7	-1.1467497e-38
48	0xbf00cba7	-0.5031075
49	0x00a618ad	1.5253544e-38
50	0xbeb180b3	-0.34668502
51	0x3e9208ac	0.2852224
52	0xbdf60d76	-0.12014286
53	0xbf131409	-0.57452446
54	0x3df95290	0.12173951
55	0xb9f1b782	-0.00046103826
56	0x3eda7259	0.42665365
57	0x3e53cc92	0.20683506
58	0xbeac0353	-0.33596286
59	0xbef5db20	-0.48018742
60	0x3e422cd1	0.18962409
61	0x3e9e6fe6	0.30944747
62	0xb5432232	-7.269292e-07
63	0x3e213eb3	0.15746574
64	0x1bdd82f7	3.6646017e-22
65	0xbe280da9	-0.16411461
66	0xbedaf712	-0.42766625
67	0x3e50158b	0.20320718
68	0xbe61d992	-0.22055653
69	0xbe790ce3	-0.24321322
70	0x3d9d9fb6	0.07696478
71	0x3e17861a	0.1479725
72	0xbf0d2317	-0.5513167
73	0xbe9b3e16	-0.30320805
74	0xbef5cbfe	-0.48007196
75	0xbeebf56e	-0.46085685
76	0x36d3e3eb	6.314823e-06
77	0xbeb9b042	-0.36267287
78	0x018b2207	5.110936e-38
79	0x3e599a0a	0.21250167
80	0xbf0175d2	-0.50570405
81	0xbe43e4d3	-0.19130258
82	0x3ec68eb8	0.3878076
83	0xbc60b012	-0.013713853
84	0xbe85c9c7	-0.26130506
85	0xbeac632e	-0.33669418
86	0xbe827cd4	-0.2548586
87	0xbf09e2b4	-0.53861547
88	0x3ee170ef	0.44031474
89	0x3db47489	0.0881129
90	0xbe8da496	-0.27664632
91	0x36445fc5	2.9262021e-06
92	0xbefabd24	-0.48972428
93	0x3ea7fcaa	0.32809955
94	0x3e86dd89	0.26340893
95	0xbf0ffa4a	-0.56241286
96	0x3e0a3295	0.13495858
97	0x3b9559b4	0.0045578126
98	0x3ee8c615	0.45463625
99	0xbf10263c	-0.5630834
100	0xbe7db902	-0.24777606
101	0x154e730b	4.1692122e-26
102	0x81383144	-3.383081e-38
103	0x3ef0e3de	0.4704885
104	0x81a0db7d	-5.908967e-38
105	0xb24465d4	-1.1431855e-08
106	0xbe9a3dab	-0.30125174
107	0xbf16f7b8	-0.5897174
108	0xbf1e46d9	-0.61826855
109	0x3dbbdea9	0.091733284
110	0xbe8bb47c	-0.27286136
111	0x3ed8ecd3	0.42368183
112	0x3ecf6a85	0.40510955
113	0x3e976d99	0.29575804
114	0x00ccecd0	1.8819394e-38
115	0xbf053ddb	-0.5204751
116	0x3eacda9b	0.33760533
117	0x3dee7879	0.11644072
118	0x3ea9c4cb	0.33157954
119	0xbf000f61	-0.50023466
120	0x80b84d09	-1.6925366e-38
121	0xbf198d0b	-0.5998084
122	0xbf0b5858	-0.54431677
123	0xbe8851fd	-0.26625052
124	0x3ed506ee	0.4160685
125	0x3ec88a06	0.39167804
126	0x3f075c8a	0.5287558
127	0x3eab78d5	0.33490625
128	0xbe73e6c4	-0.23818499
129	0x01acbcba	6.345363e-38
130	0xbe35d565	-0.17757185
131	0x3e2af38d	0.1669447
132	0x3ed7fc48	0.42184663
133	0x3dc68f03	0.09695246
134	0x01817544	4.7555384e-38
135	0xbde49013	-0.111602925
136	0xbedcd945	-0.43134513
137	0x0049071f	6.706546e-39
138	0xbefbcaa1	-0.4917803
139	0xbebe3a3a	-0.37153798
140	0x3ea1ac4f	0.31576774
141	0x3e469c93	0.19395666
142	0xbe628a7f	-0.22123145
143	0xbefc0ba8	-0.49227643
144	0xbe054ca4	-0.13017517
145	0x3ecd011d	0.40039912
146	0xbe72045a	-0.23634472
147	0x8185b8d4	-4.91217e-38
148	0xbbbe2e0f	-0.0058038305
149	0xbf0427d5	-0.5162328
150	0x3ea4b35c	0.3216809
151	0xbe781ce1	-0.24229766
152	0xbe59106a	-0.21197668
153	0xbf078d69	-0.5295015
154	0xbe49f408	-0.19721997
155	0x815bf082	-4.0396503e-38
156	0xbf067bb9	-0.52532536
157	0x3ee5aea6	0.4485981
158	0x00245487	3.3364e-39
159	0x00d2c248	1.9355149e-38
160	0x814f696f	-3.809554e-38
161	0x3e8093b8	0.251127
162	0x3f0d4db1	0.5519667
163	0x3ebff78f	0.3749356
164	0xbf18385b	-0.5946099
165	0x3e0b2423	0.13588004
166	0xbeeae003	-0.45874032
167	0x3c74303e	0.01490408
168	0xbded18ce	-0.11576997
169	0x001619c6	2.029627e-39
170	0x01aef7c9	6.427306e-38
171	0x3e24c3cf	0.1609032
172	0xbeb0ebe9	-0.34554985
173	0x00d5948c	1.9614249e-38
174	0x3eb13b66	0.3461563
175	0x016ef716	4.3890972e-38
176	0x3ec39990	0.38203096
177	0x81458faf	-3.6286273e-38
178	0x3e782696	0.2423347
179	0xbeacce7c	-0.33751285
180	0x3d8b13fd	0.06790922
181	0x3ee43d28	0.4457791
182	0xbe1d5cd7	-0.15367447
183	0xb994421b	-0.00028278012
184	0xbefbb948	-0.49164796
185	0xbeabb2d9	-0.33534887
186	0x3e2e6c8c	0.17033595
187	0x3ec3de3c	0.3825549
188	0xbe9ba1f1	-0.3039699
189	0xbeceb666	-0.40373534
190	0x2e767d2a	5.6045092e-11
191	0xbe414856	-0.1887525
192	0x1b2666be	1.3764396e-22
193	0x3da67eeb	0.081296764
194	0x3e99f839	0.3007219
195	0xbe7e299e	-0.24820563
196	0x3e26f224	0.16303307
197	0x3d8bb789	0.06822116
198	0xbe8bdf9e	-0.27319044
199	0xbe408d0d	-0.18803807
200	0x3ec9840c	0.39358556
201	0x3e803614	0.25041258
202	0x3edda4a7	0.43289682
203	0x3ec5f434	0.38662875
204	0xb62961fb	-2.5239995e-06
205	0x3e9dac7b	0.30795655
206	0x013933e2	3.4016358e-38
207	0xbe7ae165	-0.24500044
208	0x3ec0978d	0.37615624
209	0x3dd5c5f5	0.10438148
210	0xbed605b0	-0.41801214
211	0x3cba91f0	0.022774667
212	0x3e465a7b	0.19370453
213	0x3e5bdad3	0.21470194
214	0x3e2417e8	0.16024745
215	0x3ed14fde	0.40881246
216	0xbf0e3d9b	-0.5556275
217	0xbe24f9c1	-0.16110899
218	0x3e35e616	0.17763552
219	0xb659afc4	-3.2437829e-06
220	0x3ebec25a	0.37257653
221	0xbeb5243e	-0.35379213
222	0xbeabd5be	-0.3356151
223	0x3ed98e28	0.4249127
224	0xbe416fa9	-0.18890251
225	0xbe024d46	-0.1272479
226	0xbf007f75	-0.50194484
227	0x3ef40960	0.47663403
228	0x3e3befbe	0.18353173
229	0x8df9a2c3	-1.5384993e-30
230	0x008b95c8	1.2818865e-38
231	0xbef68e83	-0.48155603
232	0x81b9e1da	-6.828235e-38
233	0x33e64fbd	1.0724714e-07
234	0x3e7210c6	0.23639211
235	0x3ef7e66b	0.48417982
236	0x3f10da71	0.56583315
237	0xbe11e343	-0.1424685
238	0x3e8b9a60	0.27266216
239	0xbf05a7bf	-0.52209085
240	0xbee6d2e6	-0.45082778
241	0xbee82563	-0.45341024
242	0x80cd3214	-1.8844241e-38
243	0x3edb1862	0.4279204
244	0xbee97cb5	-0.45602956
245	0xbe76947e	-0.24080083
246	0xbedbfe23	-0.42967328
247	0x3ef1038e	0.47073025
248	0x010f199e	2.628333e-38
249	0x3ef97e74	0.4872929
250	0x3ed70fa3	0.42004117
251	0x3e8d79d0	0.27631998
252	0xbf02b0fb	-0.510513
253	0xbf06c30f	-0.52641386
254	0xbf06213d	-0.5239447
255	0xbea4c1bf	-0.32179067

g.linear2_mu.bias f4 [3]
0	0xbc18d073	-0.009327042
1	0x3c5be221	0.013420613
2	0x3c6787f5	0.014131536
